…


Fetching 2 files:   0%|          | 0/2 [00:00<?, ?it/s]
Fetching 2 files:  50%|█████     | 1/2 [00:51<00:51, 51.66s/it]
Fetching 2 files: 100%|██████████| 2/2 [00:51<00:00, 25.83s/it]

Loading weights:   0%|          | 0/434 [00:00<?, ?it/s]
Loading weights:  38%|███▊      | 167/434 [00:00<00:00, 1666.94it/s]
Loading weights:  77%|███████▋  | 334/434 [00:00<00:00, 1657.68it/s]
Loading weights: 100%|██████████| 434/434 [00:00<00:00, 1823.45it/s]
2026-07-20 11:24:19.764 | INFO     | llmc.models.base_model:build_model:242 - self.model : Qwen2ForCausalLM(
  (model): Qwen2Model(
    (embed_tokens): Embedding(151936, 2048)
    (layers): ModuleList(
      (0-35): 36 x Qwen2DecoderLayer(
        (self_attn): Qwen2Attention(
          (q_proj): Linear(in_features=2048, out_features=2048, bias=True)
          (k_proj): Linear(in_features=2048, out_features=256, bias=True)
          (v_proj): Linear(in_features=2048, out_features=256, bias=True)
          (o_proj): Linear(in_features=2048, out_features=2048, bias=False)
        )
        (mlp): Qwen2MLP(
          (gate_proj): Linear(in_features=2048, out_features=11008, bias=False)
          (up_proj): Linear(in_features=2048, out_features=11008, bias=False)
          (down_proj): Linear(in_features=11008, out_features=2048, bias=False)
          (act_fn): SiLUActivation()
        )
        (input_layernorm): Qwen2RMSNorm((2048,), eps=1e-06)
        (post_attention_layernorm): Qwen2RMSNorm((2048,), eps=1e-06)
      )
    )
    (norm): Qwen2RMSNorm((2048,), eps=1e-06)
    (rotary_emb): Qwen2RotaryEmbedding()
  )
  (lm_head): Linear(in_features=2048, out_features=151936, bias=False)
)
2026-07-20 11:24:19.764 | INFO     | llmc.models.base_model:build_model:242 - self.model : Qwen2ForCausalLM(
  (model): Qwen2Model(
    (embed_tokens): Embedding(151936, 2048)
    (layers): ModuleList(
      (0-35): 36 x Qwen2DecoderLayer(
        (self_attn): Qwen2Attention(
          (q_proj): Linear(in_features=2048, out_features=2048, bias=True)
          (k_proj): Linear(in_features=2048, out_features=256, bias=True)
          (v_proj): Linear(in_features=2048, out_features=256, bias=True)
          (o_proj): Linear(in_features=2048, out_features=2048, bias=False)
        )
        (mlp): Qwen2MLP(
          (gate_proj): Linear(in_features=2048, out_features=11008, bias=False)
          (up_proj): Linear(in_features=2048, out_features=11008, bias=False)
          (down_proj): Linear(in_features=11008, out_features=2048, bias=False)
          (act_fn): SiLUActivation()
        )
        (input_layernorm): Qwen2RMSNorm((2048,), eps=1e-06)
        (post_attention_layernorm): Qwen2RMSNorm((2048,), eps=1e-06)
      )
    )
    (norm): Qwen2RMSNorm((2048,), eps=1e-06)
    (rotary_emb): Qwen2RotaryEmbedding()
  )
  (lm_head): Linear(in_features=2048, out_features=151936, bias=False)
)
2026-07-20 11:24:19.768 | INFO     | llmc.models.base_model:add_layernorms_class:277 - _TRANSFORMERS_LN_TYPES_ : [<class 'torch.nn.modules.normalization.LayerNorm'>, <class 'transformers.models.qwen2.modeling_qwen2.Qwen2RMSNorm'>]
2026-07-20 11:24:19.768 | INFO     | llmc.models.base_model:add_layernorms_class:277 - _TRANSFORMERS_LN_TYPES_ : [<class 'torch.nn.modules.normalization.LayerNorm'>, <class 'transformers.models.qwen2.modeling_qwen2.Qwen2RMSNorm'>]
…
    "full_attention",
    "full_attention"
  ],
  "max_position_embeddings": 32768,
  "max_window_layers": 36,
  "model_type": "qwen2",
  "num_attention_heads": 16,
  "num_hidden_layers": 36,
  "num_key_value_heads": 2,
  "pad_token_id": null,
  "rms_norm_eps": 1e-06,
  "rope_parameters": {
    "rope_theta": 1000000.0,
    "rope_type": "default"
  },
  "sliding_window": null,
  "tie_word_embeddings": true,
  "transformers_version": "5.14.1",
  "use_cache": false,
  "use_mrope": false,
  "use_sliding_window": false,
  "vocab_size": 151936
}
 
Model: 
Qwen2ForCausalLM(
  (model): Qwen2Model(
    (embed_tokens): Embedding(151936, 2048)
    (layers): ModuleList(
      (0-35): 36 x Qwen2DecoderLayer(
        (self_attn): Qwen2Attention(
          (q_proj): Linear(in_features=2048, out_features=2048, bias=True)
          (k_proj): Linear(in_features=2048, out_features=256, bias=True)
          (v_proj): Linear(in_features=2048, out_features=256, bias=True)
          (o_proj): Linear(in_features=2048, out_features=2048, bias=False)
        )
        (mlp): Qwen2MLP(
          (gate_proj): Linear(in_features=2048, out_features=11008, bias=False)
          (up_proj): Linear(in_features=2048, out_features=11008, bias=False)
          (down_proj): Linear(in_features=11008, out_features=2048, bias=False)
          (act_fn): SiLUActivation()
        )
        (input_layernorm): Qwen2RMSNorm((2048,), eps=1e-06)
        (post_attention_layernorm): Qwen2RMSNorm((2048,), eps=1e-06)
      )
    )
    (norm): Qwen2RMSNorm((2048,), eps=1e-06)
    (rotary_emb): Qwen2RotaryEmbedding()
  )
  (lm_head): Linear(in_features=2048, out_features=151936, bias=False)
)
2026-07-20 11:24:19.769 | INFO     | __main__:main:32 - model: 
Config: 
Qwen2Config {
  "architectures": [
    "Qwen2ForCausalLM"
  ],
  "attention_dropout": 0.0,
  "bos_token_id": 151643,
  "dtype": "bfloat16",
  "eos_token_id": 151643,
  "hidden_act": "silu",
  "hidden_size": 2048,
  "initializer_range": 0.02,
  "intermediate_size": 11008,
  "layer_types": [
…
  m.register_buffer('buf_qmax', torch.tensor(max_int).to(self.dev))
/mnt/d/LightCompress/llmc/compression/quantization/base_blockwise_quantization.py:372: UserWarning: To copy construct from a tensor, it is recommended to use sourceTensor.detach().clone() or sourceTensor.detach().clone().requires_grad_(True), rather than torch.tensor(sourceTensor).
  m.register_buffer('buf_qmin', torch.tensor(min_int).to(self.dev))
2026-07-20 11:24:39.845 | INFO     | llmc.compression.blockwise_optimization:run_block_loop:36 - 
block index: 0/36 
block: Qwen2DecoderLayer(
  (self_attn): Qwen2Attention(
    (q_proj): Linear(in_features=2048, out_features=2048, bias=True)
    (k_proj): Linear(in_features=2048, out_features=256, bias=True)
    (v_proj): Linear(in_features=2048, out_features=256, bias=True)
    (o_proj): Linear(in_features=2048, out_features=2048, bias=False)
  )
  (mlp): Qwen2MLP(
    (gate_proj): Linear(in_features=2048, out_features=11008, bias=False)
    (up_proj): Linear(in_features=2048, out_features=11008, bias=False)
    (down_proj): Linear(in_features=11008, out_features=2048, bias=False)
    (act_fn): SiLUActivation()
  )
  (input_layernorm): Qwen2RMSNorm((2048,), eps=1e-06)
  (post_attention_layernorm): Qwen2RMSNorm((2048,), eps=1e-06)
)
2026-07-20 11:24:39.845 | INFO     | llmc.compression.blockwise_optimization:run_block_loop:36 - 
block index: 0/36 
block: Qwen2DecoderLayer(
  (self_attn): Qwen2Attention(
    (q_proj): Linear(in_features=2048, out_features=2048, bias=True)
    (k_proj): Linear(in_features=2048, out_features=256, bias=True)
    (v_proj): Linear(in_features=2048, out_features=256, bias=True)
    (o_proj): Linear(in_features=2048, out_features=2048, bias=False)
  )
  (mlp): Qwen2MLP(
    (gate_proj): Linear(in_features=2048, out_features=11008, bias=False)
    (up_proj): Linear(in_features=2048, out_features=11008, bias=False)
    (down_proj): Linear(in_features=11008, out_features=2048, bias=False)
    (act_fn): SiLUActivation()
  )
  (input_layernorm): Qwen2RMSNorm((2048,), eps=1e-06)
  (post_attention_layernorm): Qwen2RMSNorm((2048,), eps=1e-06)
)
2026-07-20 11:24:39.873 | INFO     | llmc.compression.quantization.base_blockwise_quantization:block_opt:416 - input_feat_modules: {'self_attn.q_proj': Linear(in_features=2048, out_features=2048, 
…
2026-07-20 11:24:42.373 | INFO     | llmc.compression.quantization.base_blockwise_quantization:block_transform:484 - Start transform the 0-th block
2026-07-20 11:24:42.373 | INFO     | llmc.compression.quantization.base_blockwise_quantization:block_transform:493 - subset: {'layers': {'self_attn.q_proj': Linear(in_features=2048, out_features=2048, bias=True), 'self_attn.k_proj': Linear(in_features=2048, out_features=256, bias=True), 'self_attn.v_proj': Linear(in_features=2048, out_features=256, bias=True)}, 'prev_op': [Qwen2RMSNorm((2048,), eps=1e-06)], 'input': ['self_attn.q_proj'], 'inspect': Qwen2Attention(
  (q_proj): Linear(in_features=2048, out_features=2048, bias=True)
  (k_proj): Linear(in_features=2048, out_features=256, bias=True)
  (v_proj): Linear(in_features=2048, out_features=256, bias=True)
  (o_proj): Linear(in_features=2048, out_features=2048, bias=False)
), 'has_kwargs': True}
2026-07-20 11:24:42.373 | INFO     | llmc.compression.quantization.base_blockwise_quantization:block_transform:493 - subset: {'layers': {'self_attn.q_proj': Linear(in_features=2048, out_features=2048, bias=True), 'self_attn.k_proj': Linear(in_features=2048, out_features=256, bias=True), 'self_attn.v_proj': Linear(in_features=2048, out_features=256, bias=True)}, 'prev_op': [Qwen2RMSNorm((2048,), eps=1e-06)], 'input': ['self_attn.q_proj'], 'inspect': Qwen2Attention(
  (q_proj): Linear(in_features=2048, out_features=2048, bias=True)
  (k_proj): Linear(in_features=2048, out_features=256, bias=True)
  (v_proj): Linear(in_features=2048, out_features=256, bias=True)
  (o_proj): Linear(in_features=2048, out_features=2048, bias=False)
), 'has_kwargs': True}
2026-07-20 11:24:43.074 | INFO     | llmc.compression.quantization.gptq:update_layer_with_transformed_weights:184 - error 5121.033203125
2026-07-20 11:24:43.074 | INFO     | llmc.compression.quantization.gptq:update_layer_with_transformed_weights:184 - error 5121.033203125
2026-07-20 11:24:43.392 | INFO     | llmc.compression.quantization.gptq:update_layer_with_transformed_weights:184 - error 1134.473388671875
…
2026-07-20 11:24:44.535 | INFO     | llmc.models.base_model:replace_module_subset:432 - replace >>> self_attn.o_proj in 0-th block
2026-07-20 11:24:44.535 | INFO     | llmc.models.base_model:replace_module_subset:432 - replace >>> self_attn.o_proj in 0-th block
2026-07-20 11:24:45.138 | INFO     | llmc.compression.quantization.base_blockwise_quantization:block_transform:493 - subset: {'layers': {'mlp.gate_proj': Linear(in_features=2048, out_features=11008, bias=False), 'mlp.up_proj': Linear(in_features=2048, out_features=11008, bias=False)}, 'prev_op': [Qwen2RMSNorm((2048,), eps=1e-06)], 'input': ['mlp.gate_proj'], 'inspect': Qwen2MLP(
  (gate_proj): Linear(in_features=2048, out_features=11008, bias=False)
  (up_proj): Linear(in_features=2048, out_features=11008, bias=False)
  (down_proj): Linear(in_features=11008, out_features=2048, bias=False)
  (act_fn): SiLUActivation()
), 'has_kwargs': False, 'is_mlp': True}
2026-07-20 11:24:45.138 | INFO     | llmc.compression.quantization.base_blockwise_quantization:block_transform:493 - subset: {'layers': {'mlp.gate_proj': Linear(in_features=2048, out_features=11008, bias=False), 'mlp.up_proj': Linear(in_features=2048, out_features=11008, bias=False)}, 'prev_op': [Qwen2RMSNorm((2048,), eps=1e-06)], 'input': ['mlp.gate_proj'], 'inspect': Qwen2MLP(
  (gate_proj): Linear(in_features=2048, out_features=11008, bias=False)
  (up_proj): Linear(in_features=2048, out_features=11008, bias=False)
  (down_proj): Linear(in_features=11008, out_features=2048, bias=False)
  (act_fn): SiLUActivation()
), 'has_kwargs': False, 'is_mlp': True}
2026-07-20 11:24:45.464 | INFO     | llmc.compression.quantization.gptq:update_layer_with_transformed_weights:184 - error 4136.1376953125
2026-07-20 11:24:45.464 | INFO     | llmc.compression.quantization.gptq:update_layer_with_transformed_weights:184 - error 4136.1376953125
2026-07-20 11:24:45.776 | INFO     | llmc.compression.quantization.gptq:update_layer_with_transformed_weights:184 - error 3219.866943359375
…
