…
Loading weights:  71%|███████▏  | 208/291 [00:02<00:00, 86.40it/s]
Loading weights:  75%|███████▍  | 217/291 [00:02<00:00, 80.05it/s]
Loading weights:  78%|███████▊  | 228/291 [00:02<00:00, 86.49it/s]
Loading weights:  82%|████████▏ | 239/291 [00:02<00:00, 91.62it/s]
Loading weights:  87%|████████▋ | 254/291 [00:02<00:00, 102.42it/s]
Loading weights:  91%|█████████ | 265/291 [00:02<00:00, 90.92it/s] 
Loading weights: 100%|██████████| 291/291 [00:02<00:00, 99.29it/s]
2026-07-20 12:51:59.528 | INFO     | llmc.models.base_model:build_model:242 - self.model : LlamaForCausalLM(
  (model): LlamaModel(
    (embed_tokens): Embedding(32000, 4096)
    (layers): ModuleList(
      (0-31): 32 x LlamaDecoderLayer(
        (self_attn): LlamaAttention(
          (q_proj): Linear(in_features=4096, out_features=4096, bias=False)
          (k_proj): Linear(in_features=4096, out_features=4096, bias=False)
          (v_proj): Linear(in_features=4096, out_features=4096, bias=False)
          (o_proj): Linear(in_features=4096, out_features=4096, bias=False)
        )
        (mlp): LlamaMLP(
          (gate_proj): Linear(in_features=4096, out_features=11008, bias=False)
          (up_proj): Linear(in_features=4096, out_features=11008, bias=False)
          (down_proj): Linear(in_features=11008, out_features=4096, bias=False)
          (act_fn): SiLUActivation()
        )
        (input_layernorm): LlamaRMSNorm((4096,), eps=1e-05)
        (post_attention_layernorm): LlamaRMSNorm((4096,), eps=1e-05)
      )
    )
    (norm): LlamaRMSNorm((4096,), eps=1e-05)
    (rotary_emb): LlamaRotaryEmbedding()
  )
  (lm_head): Linear(in_features=4096, out_features=32000, bias=False)
)
2026-07-20 12:51:59.528 | INFO     | llmc.models.base_model:build_model:242 - self.model : LlamaForCausalLM(
  (model): LlamaModel(
    (embed_tokens): Embedding(32000, 4096)
    (layers): ModuleList(
      (0-31): 32 x LlamaDecoderLayer(
        (self_attn): LlamaAttention(
          (q_proj): Linear(in_features=4096, out_features=4096, bias=False)
          (k_proj): Linear(in_features=4096, out_features=4096, bias=False)
          (v_proj): Linear(in_features=4096, out_features=4096, bias=False)
          (o_proj): Linear(in_features=4096, out_features=4096, bias=False)
        )
        (mlp): LlamaMLP(
          (gate_proj): Linear(in_features=4096, out_features=11008, bias=False)
          (up_proj): Linear(in_features=4096, out_features=11008, bias=False)
          (down_proj): Linear(in_features=11008, out_features=4096, bias=False)
          (act_fn): SiLUActivation()
        )
        (input_layernorm): LlamaRMSNorm((4096,), eps=1e-05)
        (post_attention_layernorm): LlamaRMSNorm((4096,), eps=1e-05)
      )
    )
    (norm): LlamaRMSNorm((4096,), eps=1e-05)
    (rotary_emb): LlamaRotaryEmbedding()
  )
  (lm_head): Linear(in_features=4096, out_features=32000, bias=False)
)
2026-07-20 12:51:59.529 | INFO     | llmc.models.base_model:add_layernorms_class:277 - _TRANSFORMERS_LN_TYPES_ : [<class 'torch.nn.modules.normalization.LayerNorm'>, <class 'transformers.models.llama.modeling_llama.LlamaRMSNorm'>]
2026-07-20 12:51:59.529 | INFO     | llmc.models.base_model:add_layernorms_class:277 - _TRANSFORMERS_LN_TYPES_ : [<class 'torch.nn.modules.normalization.LayerNorm'>, <class 'transformers.models.llama.modeling_llama.LlamaRMSNorm'>]
…
  "hidden_act": "silu",
  "hidden_size": 4096,
  "initializer_range": 0.02,
  "intermediate_size": 11008,
  "max_position_embeddings": 4096,
  "mlp_bias": false,
  "model_type": "llama",
  "num_attention_heads": 32,
  "num_hidden_layers": 32,
  "num_key_value_heads": 32,
  "pad_token_id": null,
  "pretraining_tp": 1,
  "rms_norm_eps": 1e-05,
  "rope_parameters": {
    "rope_theta": 10000.0,
    "rope_type": "default"
  },
  "tie_word_embeddings": false,
  "transformers_version": "5.14.1",
  "use_cache": false,
  "vocab_size": 32000
}
 
Model: 
LlamaForCausalLM(
  (model): LlamaModel(
    (embed_tokens): Embedding(32000, 4096)
    (layers): ModuleList(
      (0-31): 32 x LlamaDecoderLayer(
        (self_attn): LlamaAttention(
          (q_proj): Linear(in_features=4096, out_features=4096, bias=False)
          (k_proj): Linear(in_features=4096, out_features=4096, bias=False)
          (v_proj): Linear(in_features=4096, out_features=4096, bias=False)
          (o_proj): Linear(in_features=4096, out_features=4096, bias=False)
        )
        (mlp): LlamaMLP(
          (gate_proj): Linear(in_features=4096, out_features=11008, bias=False)
          (up_proj): Linear(in_features=4096, out_features=11008, bias=False)
          (down_proj): Linear(in_features=11008, out_features=4096, bias=False)
          (act_fn): SiLUActivation()
        )
        (input_layernorm): LlamaRMSNorm((4096,), eps=1e-05)
        (post_attention_layernorm): LlamaRMSNorm((4096,), eps=1e-05)
      )
    )
    (norm): LlamaRMSNorm((4096,), eps=1e-05)
    (rotary_emb): LlamaRotaryEmbedding()
  )
  (lm_head): Linear(in_features=4096, out_features=32000, bias=False)
)
2026-07-20 12:51:59.530 | INFO     | __main__:main:32 - model: 
Config: 
LlamaConfig {
  "architectures": [
    "LlamaForCausalLM"
  ],
  "attention_bias": false,
  "attention_dropout": 0.0,
  "bos_token_id": 1,
  "dtype": "float16",
  "eos_token_id": 2,
  "head_dim": 128,
  "hidden_act": "silu",
  "hidden_size": 4096,
  "initializer_range": 0.02,
…
  m.register_buffer('buf_qmax', torch.tensor(max_int).to(self.dev))
/mnt/d/LightCompress/llmc/compression/quantization/base_blockwise_quantization.py:372: UserWarning: To copy construct from a tensor, it is recommended to use sourceTensor.detach().clone() or sourceTensor.detach().clone().requires_grad_(True), rather than torch.tensor(sourceTensor).
  m.register_buffer('buf_qmin', torch.tensor(min_int).to(self.dev))
2026-07-20 12:52:35.564 | INFO     | llmc.compression.blockwise_optimization:run_block_loop:36 - 
block index: 0/32 
block: LlamaDecoderLayer(
  (self_attn): LlamaAttention(
    (q_proj): Linear(in_features=4096, out_features=4096, bias=False)
    (k_proj): Linear(in_features=4096, out_features=4096, bias=False)
    (v_proj): Linear(in_features=4096, out_features=4096, bias=False)
    (o_proj): Linear(in_features=4096, out_features=4096, bias=False)
  )
  (mlp): LlamaMLP(
    (gate_proj): Linear(in_features=4096, out_features=11008, bias=False)
    (up_proj): Linear(in_features=4096, out_features=11008, bias=False)
    (down_proj): Linear(in_features=11008, out_features=4096, bias=False)
    (act_fn): SiLUActivation()
  )
  (input_layernorm): LlamaRMSNorm((4096,), eps=1e-05)
  (post_attention_layernorm): LlamaRMSNorm((4096,), eps=1e-05)
)
2026-07-20 12:52:35.564 | INFO     | llmc.compression.blockwise_optimization:run_block_loop:36 - 
block index: 0/32 
block: LlamaDecoderLayer(
  (self_attn): LlamaAttention(
    (q_proj): Linear(in_features=4096, out_features=4096, bias=False)
    (k_proj): Linear(in_features=4096, out_features=4096, bias=False)
    (v_proj): Linear(in_features=4096, out_features=4096, bias=False)
    (o_proj): Linear(in_features=4096, out_features=4096, bias=False)
  )
  (mlp): LlamaMLP(
    (gate_proj): Linear(in_features=4096, out_features=11008, bias=False)
    (up_proj): Linear(in_features=4096, out_features=11008, bias=False)
    (down_proj): Linear(in_features=11008, out_features=4096, bias=False)
    (act_fn): SiLUActivation()
  )
  (input_layernorm): LlamaRMSNorm((4096,), eps=1e-05)
  (post_attention_layernorm): LlamaRMSNorm((4096,), eps=1e-05)
)
2026-07-20 12:52:35.706 | INFO     | llmc.compression.quantization.base_blockwise_quantization:block_opt:416 - input_feat_modules: {'self_attn.q_proj': Linear(in_features=4096, out_features=4096, 
…
2026-07-20 12:52:39.013 | INFO     | llmc.compression.quantization.base_blockwise_quantization:block_transform:484 - Start transform the 0-th block
2026-07-20 12:52:39.013 | INFO     | llmc.compression.quantization.base_blockwise_quantization:block_transform:493 - subset: {'layers': {'self_attn.q_proj': Linear(in_features=4096, out_features=4096, bias=False), 'self_attn.k_proj': Linear(in_features=4096, out_features=4096, bias=False), 'self_attn.v_proj': Linear(in_features=4096, out_features=4096, bias=False)}, 'prev_op': [LlamaRMSNorm((4096,), eps=1e-05)], 'input': ['self_attn.q_proj'], 'inspect': LlamaAttention(
  (q_proj): Linear(in_features=4096, out_features=4096, bias=False)
  (k_proj): Linear(in_features=4096, out_features=4096, bias=False)
  (v_proj): Linear(in_features=4096, out_features=4096, bias=False)
  (o_proj): Linear(in_features=4096, out_features=4096, bias=False)
), 'has_kwargs': True}
2026-07-20 12:52:39.013 | INFO     | llmc.compression.quantization.base_blockwise_quantization:block_transform:493 - subset: {'layers': {'self_attn.q_proj': Linear(in_features=4096, out_features=4096, bias=False), 'self_attn.k_proj': Linear(in_features=4096, out_features=4096, bias=False), 'self_attn.v_proj': Linear(in_features=4096, out_features=4096, bias=False)}, 'prev_op': [LlamaRMSNorm((4096,), eps=1e-05)], 'input': ['self_attn.q_proj'], 'inspect': LlamaAttention(
  (q_proj): Linear(in_features=4096, out_features=4096, bias=False)
  (k_proj): Linear(in_features=4096, out_features=4096, bias=False)
  (v_proj): Linear(in_features=4096, out_features=4096, bias=False)
  (o_proj): Linear(in_features=4096, out_features=4096, bias=False)
), 'has_kwargs': True}
2026-07-20 12:52:39.989 | INFO     | llmc.compression.quantization.gptq:update_layer_with_transformed_weights:184 - error 160.0868682861328
2026-07-20 12:52:39.989 | INFO     | llmc.compression.quantization.gptq:update_layer_with_transformed_weights:184 - error 160.0868682861328
2026-07-20 12:52:40.576 | INFO     | llmc.compression.quantization.gptq:update_layer_with_transformed_weights:184 - error 142.10096740722656
…
2026-07-20 12:52:42.770 | INFO     | llmc.models.base_model:replace_module_subset:432 - replace >>> self_attn.o_proj in 0-th block
2026-07-20 12:52:42.770 | INFO     | llmc.models.base_model:replace_module_subset:432 - replace >>> self_attn.o_proj in 0-th block
2026-07-20 12:52:43.941 | INFO     | llmc.compression.quantization.base_blockwise_quantization:block_transform:493 - subset: {'layers': {'mlp.gate_proj': Linear(in_features=4096, out_features=11008, bias=False), 'mlp.up_proj': Linear(in_features=4096, out_features=11008, bias=False)}, 'prev_op': [LlamaRMSNorm((4096,), eps=1e-05)], 'input': ['mlp.gate_proj'], 'inspect': LlamaMLP(
  (gate_proj): Linear(in_features=4096, out_features=11008, bias=False)
  (up_proj): Linear(in_features=4096, out_features=11008, bias=False)
  (down_proj): Linear(in_features=11008, out_features=4096, bias=False)
  (act_fn): SiLUActivation()
), 'has_kwargs': False, 'is_mlp': True}
2026-07-20 12:52:43.941 | INFO     | llmc.compression.quantization.base_blockwise_quantization:block_transform:493 - subset: {'layers': {'mlp.gate_proj': Linear(in_features=4096, out_features=11008, bias=False), 'mlp.up_proj': Linear(in_features=4096, out_features=11008, bias=False)}, 'prev_op': [LlamaRMSNorm((4096,), eps=1e-05)], 'input': ['mlp.gate_proj'], 'inspect': LlamaMLP(
  (gate_proj): Linear(in_features=4096, out_features=11008, bias=False)
  (up_proj): Linear(in_features=4096, out_features=11008, bias=False)
  (down_proj): Linear(in_features=11008, out_features=4096, bias=False)
  (act_fn): SiLUActivation()
), 'has_kwargs': False, 'is_mlp': True}
2026-07-20 12:52:44.536 | INFO     | llmc.compression.quantization.gptq:update_layer_with_transformed_weights:184 - error 134.24656677246094
2026-07-20 12:52:44.536 | INFO     | llmc.compression.quantization.gptq:update_layer_with_transformed_weights:184 - error 134.24656677246094
…
