…
  "num_hidden_layers": 16,
  "num_key_value_heads": 8,
  "pretraining_tp": 1,
  "rms_norm_eps": 1e-05,
  "rope_scaling": {
    "factor": 32.0,
    "high_freq_factor": 4.0,
    "low_freq_factor": 1.0,
    "original_max_position_embeddings": 8192,
    "rope_type": "llama3"
  },
  "rope_theta": 500000.0,
  "tie_word_embeddings": true,
  "transformers_version": "4.57.6",
  "use_cache": false,
  "vocab_size": 128256
}

`torch_dtype` is deprecated! Use `dtype` instead!
2026-07-19 13:50:00.537 | INFO     | llmc.models.base_model:build_model:242 - self.model : LlamaForCausalLM(
  (model): LlamaModel(
    (embed_tokens): Embedding(128256, 2048)
    (layers): ModuleList(
      (0-15): 16 x LlamaDecoderLayer(
        (self_attn): LlamaAttention(
          (q_proj): Linear(in_features=2048, out_features=2048, bias=False)
          (k_proj): Linear(in_features=2048, out_features=512, bias=False)
          (v_proj): Linear(in_features=2048, out_features=512, bias=False)
          (o_proj): Linear(in_features=2048, out_features=2048, bias=False)
        )
        (mlp): LlamaMLP(
          (gate_proj): Linear(in_features=2048, out_features=8192, bias=False)
          (up_proj): Linear(in_features=2048, out_features=8192, bias=False)
          (down_proj): Linear(in_features=8192, out_features=2048, bias=False)
          (act_fn): SiLUActivation()
        )
        (input_layernorm): LlamaRMSNorm((2048,), eps=1e-05)
        (post_attention_layernorm): LlamaRMSNorm((2048,), eps=1e-05)
      )
    )
    (norm): LlamaRMSNorm((2048,), eps=1e-05)
    (rotary_emb): LlamaRotaryEmbedding()
  )
  (lm_head): Linear(in_features=2048, out_features=128256, bias=False)
)
2026-07-19 13:50:00.537 | INFO     | llmc.models.base_model:build_model:242 - self.model : LlamaForCausalLM(
  (model): LlamaModel(
    (embed_tokens): Embedding(128256, 2048)
    (layers): ModuleList(
      (0-15): 16 x LlamaDecoderLayer(
        (self_attn): LlamaAttention(
          (q_proj): Linear(in_features=2048, out_features=2048, bias=False)
          (k_proj): Linear(in_features=2048, out_features=512, bias=False)
          (v_proj): Linear(in_features=2048, out_features=512, bias=False)
          (o_proj): Linear(in_features=2048, out_features=2048, bias=False)
        )
        (mlp): LlamaMLP(
          (gate_proj): Linear(in_features=2048, out_features=8192, bias=False)
          (up_proj): Linear(in_features=2048, out_features=8192, bias=False)
          (down_proj): Linear(in_features=8192, out_features=2048, bias=False)
          (act_fn): SiLUActivation()
        )
        (input_layernorm): LlamaRMSNorm((2048,), eps=1e-05)
        (post_attention_layernorm): LlamaRMSNorm((2048,), eps=1e-05)
      )
    )
    (norm): LlamaRMSNorm((2048,), eps=1e-05)
    (rotary_emb): LlamaRotaryEmbedding()
  )
  (lm_head): Linear(in_features=2048, out_features=128256, bias=False)
)
2026-07-19 13:50:00.537 | INFO     | llmc.models.base_model:add_layernorms_class:277 - _TRANSFORMERS_LN_TYPES_ : [<class 'torch.nn.modules.normalization.LayerNorm'>, <class 'transformers.models.llama.modeling_llama.LlamaRMSNorm'>]
2026-07-19 13:50:00.537 | INFO     | llmc.models.base_model:add_layernorms_class:277 - _TRANSFORMERS_LN_TYPES_ : [<class 'torch.nn.modules.normalization.LayerNorm'>, <class 'transformers.models.llama.modeling_llama.LlamaRMSNorm'>]
…
  "intermediate_size": 8192,
  "max_position_embeddings": 131072,
  "mlp_bias": false,
  "model_type": "llama",
  "num_attention_heads": 32,
  "num_hidden_layers": 16,
  "num_key_value_heads": 8,
  "pretraining_tp": 1,
  "rms_norm_eps": 1e-05,
  "rope_scaling": {
    "factor": 32.0,
    "high_freq_factor": 4.0,
    "low_freq_factor": 1.0,
    "original_max_position_embeddings": 8192,
    "rope_type": "llama3"
  },
  "rope_theta": 500000.0,
  "tie_word_embeddings": true,
  "transformers_version": "4.57.6",
  "use_cache": false,
  "vocab_size": 128256
}
 
Model: 
LlamaForCausalLM(
  (model): LlamaModel(
    (embed_tokens): Embedding(128256, 2048)
    (layers): ModuleList(
      (0-15): 16 x LlamaDecoderLayer(
        (self_attn): LlamaAttention(
          (q_proj): Linear(in_features=2048, out_features=2048, bias=False)
          (k_proj): Linear(in_features=2048, out_features=512, bias=False)
          (v_proj): Linear(in_features=2048, out_features=512, bias=False)
          (o_proj): Linear(in_features=2048, out_features=2048, bias=False)
        )
        (mlp): LlamaMLP(
          (gate_proj): Linear(in_features=2048, out_features=8192, bias=False)
          (up_proj): Linear(in_features=2048, out_features=8192, bias=False)
          (down_proj): Linear(in_features=8192, out_features=2048, bias=False)
          (act_fn): SiLUActivation()
        )
        (input_layernorm): LlamaRMSNorm((2048,), eps=1e-05)
        (post_attention_layernorm): LlamaRMSNorm((2048,), eps=1e-05)
      )
    )
    (norm): LlamaRMSNorm((2048,), eps=1e-05)
    (rotary_emb): LlamaRotaryEmbedding()
  )
  (lm_head): Linear(in_features=2048, out_features=128256, bias=False)
)
2026-07-19 13:50:00.538 | INFO     | __main__:main:32 - model: 
Config: 
LlamaConfig {
  "architectures": [
    "LlamaForCausalLM"
  ],
  "attention_bias": false,
  "attention_dropout": 0.0,
  "bos_token_id": 128000,
  "dtype": "bfloat16",
  "eos_token_id": 128001,
  "head_dim": 64,
  "hidden_act": "silu",
  "hidden_size": 2048,
  "initializer_range": 0.02,
…
2026-07-19 13:50:08.477 | INFO     | llmc.compression.quantization.base_blockwise_quantization:set_quant_config:265 - self.quant_objects : language
2026-07-19 13:50:08.477 | INFO     | llmc.compression.quantization.base_blockwise_quantization:set_quant_config:275 - self.do_gqa_trans : False
2026-07-19 13:50:08.477 | INFO     | llmc.compression.quantization.base_blockwise_quantization:set_quant_config:275 - self.do_gqa_trans : False
2026-07-19 13:50:08.478 | INFO     | llmc.compression.blockwise_optimization:run_block_loop:36 - 
block index: 0/16 
block: LlamaDecoderLayer(
  (self_attn): LlamaAttention(
    (q_proj): Linear(in_features=2048, out_features=2048, bias=False)
    (k_proj): Linear(in_features=2048, out_features=512, bias=False)
    (v_proj): Linear(in_features=2048, out_features=512, bias=False)
    (o_proj): Linear(in_features=2048, out_features=2048, bias=False)
  )
  (mlp): LlamaMLP(
    (gate_proj): Linear(in_features=2048, out_features=8192, bias=False)
    (up_proj): Linear(in_features=2048, out_features=8192, bias=False)
    (down_proj): Linear(in_features=8192, out_features=2048, bias=False)
    (act_fn): SiLUActivation()
  )
  (input_layernorm): LlamaRMSNorm((2048,), eps=1e-05)
  (post_attention_layernorm): LlamaRMSNorm((2048,), eps=1e-05)
)
2026-07-19 13:50:08.478 | INFO     | llmc.compression.blockwise_optimization:run_block_loop:36 - 
block index: 0/16 
block: LlamaDecoderLayer(
  (self_attn): LlamaAttention(
    (q_proj): Linear(in_features=2048, out_features=2048, bias=False)
    (k_proj): Linear(in_features=2048, out_features=512, bias=False)
    (v_proj): Linear(in_features=2048, out_features=512, bias=False)
    (o_proj): Linear(in_features=2048, out_features=2048, bias=False)
  )
  (mlp): LlamaMLP(
    (gate_proj): Linear(in_features=2048, out_features=8192, bias=False)
    (up_proj): Linear(in_features=2048, out_features=8192, bias=False)
    (down_proj): Linear(in_features=8192, out_features=2048, bias=False)
    (act_fn): SiLUActivation()
  )
  (input_layernorm): LlamaRMSNorm((2048,), eps=1e-05)
  (post_attention_layernorm): LlamaRMSNorm((2048,), eps=1e-05)
)
2026-07-19 13:50:08.478 | INFO     | llmc.compression.blockwise_optimization:run_block_loop:36 - 
block index: 1/16 
block: LlamaDecoderLayer(
  (self_attn): LlamaAttention(
    (q_proj): Linear(in_features=2048, out_features=2048, bias=False)
    (k_proj): Linear(in_features=2048, out_features=512, bias=False)
    (v_proj): Linear(in_features=2048, out_features=512, bias=False)
    (o_proj): Linear(in_features=2048, out_features=2048, bias=False)
  )
  (mlp): LlamaMLP(
    (gate_proj): Linear(in_features=2048, out_features=8192, bias=False)
    (up_proj): Linear(in_features=2048, out_features=8192, bias=False)
    (down_proj): Linear(in_features=8192, out_features=2048, bias=False)
    (act_fn): SiLUActivation()
  )
  (input_layernorm): LlamaRMSNorm((2048,), eps=1e-05)
  (post_attention_layernorm): LlamaRMSNorm((2048,), eps=1e-05)
)
2026-07-19 13:50:08.478 | INFO     | llmc.compression.blockwise_optimization:run_block_loop:36 - 
block index: 1/16 
block: LlamaDecoderLayer(
  (self_attn): LlamaAttention(
    (q_proj): Linear(in_features=2048, out_features=2048, bias=False)
    (k_proj): Linear(in_features=2048, out_features=512, bias=False)
    (v_proj): Linear(in_features=2048, out_features=512, bias=False)
    (o_proj): Linear(in_features=2048, out_features=2048, bias=False)
  )
  (mlp): LlamaMLP(
    (gate_proj): Linear(in_features=2048, out_features=8192, bias=False)
    (up_proj): Linear(in_features=2048, out_features=8192, bias=False)
    (down_proj): Linear(in_features=8192, out_features=2048, bias=False)
    (act_fn): SiLUActivation()
  )
  (input_layernorm): LlamaRMSNorm((2048,), eps=1e-05)
  (post_attention_layernorm): LlamaRMSNorm((2048,), eps=1e-05)
)
2026-07-19 13:50:08.478 | INFO     | llmc.compression.blockwise_optimization:run_block_loop:36 - 
block index: 2/16 
block: LlamaDecoderLayer(
  (self_attn): LlamaAttention(
    (q_proj): Linear(in_features=2048, out_features=2048, bias=False)
    (k_proj): Linear(in_features=2048, out_features=512, bias=False)
    (v_proj): Linear(in_features=2048, out_features=512, bias=False)
    (o_proj): Linear(in_features=2048, out_features=2048, bias=False)
  )
  (mlp): LlamaMLP(
    (gate_proj): Linear(in_features=2048, out_features=8192, bias=False)
    (up_proj): Linear(in_features=2048, out_features=8192, bias=False)
    (down_proj): Linear(in_features=8192, out_features=2048, bias=False)
    (act_fn): SiLUActivation()
  )
  (input_layernorm): LlamaRMSNorm((2048,), eps=1e-05)
  (post_attention_layernorm): LlamaRMSNorm((2048,), eps=1e-05)
)
2026-07-19 13:50:08.478 | INFO     | llmc.compression.blockwise_optimization:run_block_loop:36 - 
block index: 2/16 
block: LlamaDecoderLayer(
  (self_attn): LlamaAttention(
    (q_proj): Linear(in_features=2048, out_features=2048, bias=False)
    (k_proj): Linear(in_features=2048, out_features=512, bias=False)
    (v_proj): Linear(in_features=2048, out_features=512, bias=False)
    (o_proj): Linear(in_features=2048, out_features=2048, bias=False)
  )
  (mlp): LlamaMLP(
    (gate_proj): Linear(in_features=2048, out_features=8192, bias=False)
    (up_proj): Linear(in_features=2048, out_features=8192, bias=False)
    (down_proj): Linear(in_features=8192, out_features=2048, bias=False)
    (act_fn): SiLUActivation()
  )
  (input_layernorm): LlamaRMSNorm((2048,), eps=1e-05)
  (post_attention_layernorm): LlamaRMSNorm((2048,), eps=1e-05)
)
2026-07-19 13:50:08.478 | INFO     | llmc.compression.blockwise_optimization:run_block_loop:36 - 
block index: 3/16 
block: LlamaDecoderLayer(
  (self_attn): LlamaAttention(
    (q_proj): Linear(in_features=2048, out_features=2048, bias=False)
    (k_proj): Linear(in_features=2048, out_features=512, bias=False)
    (v_proj): Linear(in_features=2048, out_features=512, bias=False)
    (o_proj): Linear(in_features=2048, out_features=2048, bias=False)
  )
  (mlp): LlamaMLP(
    (gate_proj): Linear(in_features=2048, out_features=8192, bias=False)
    (up_proj): Linear(in_features=2048, out_features=8192, bias=False)
    (down_proj): Linear(in_features=8192, out_features=2048, bias=False)
    (act_fn): SiLUActivation()
  )
  (input_layernorm): LlamaRMSNorm((2048,), eps=1e-05)
  (post_attention_layernorm): LlamaRMSNorm((2048,), eps=1e-05)
)
2026-07-19 13:50:08.478 | INFO     | llmc.compression.blockwise_optimization:run_block_loop:36 - 
block index: 3/16 
block: LlamaDecoderLayer(
  (self_attn): LlamaAttention(
    (q_proj): Linear(in_features=2048, out_features=2048, bias=False)
    (k_proj): Linear(in_features=2048, out_features=512, bias=False)
    (v_proj): Linear(in_features=2048, out_features=512, bias=False)
    (o_proj): Linear(in_features=2048, out_features=2048, bias=False)
  )
  (mlp): LlamaMLP(
    (gate_proj): Linear(in_features=2048, out_features=8192, bias=False)
    (up_proj): Linear(in_features=2048, out_features=8192, bias=False)
    (down_proj): Linear(in_features=8192, out_features=2048, bias=False)
    (act_fn): SiLUActivation()
  )
  (input_layernorm): LlamaRMSNorm((2048,), eps=1e-05)
  (post_attention_layernorm): LlamaRMSNorm((2048,), eps=1e-05)
)
2026-07-19 13:50:08.478 | INFO     | llmc.compression.blockwise_optimization:run_block_loop:36 - 
block index: 4/16 
block: LlamaDecoderLayer(
  (self_attn): LlamaAttention(
    (q_proj): Linear(in_features=2048, out_features=2048, bias=False)
    (k_proj): Linear(in_features=2048, out_features=512, bias=False)
    (v_proj): Linear(in_features=2048, out_features=512, bias=False)
    (o_proj): Linear(in_features=2048, out_features=2048, bias=False)
  )
  (mlp): LlamaMLP(
    (gate_proj): Linear(in_features=2048, out_features=8192, bias=False)
    (up_proj): Linear(in_features=2048, out_features=8192, bias=False)
    (down_proj): Linear(in_features=8192, out_features=2048, bias=False)
    (act_fn): SiLUActivation()
  )
  (input_layernorm): LlamaRMSNorm((2048,), eps=1e-05)
  (post_attention_layernorm): LlamaRMSNorm((2048,), eps=1e-05)
)
2026-07-19 13:50:08.478 | INFO     | llmc.compression.blockwise_optimization:run_block_loop:36 - 
block index: 4/16 
block: LlamaDecoderLayer(
  (self_attn): LlamaAttention(
    (q_proj): Linear(in_features=2048, out_features=2048, bias=False)
    (k_proj): Linear(in_features=2048, out_features=512, bias=False)
    (v_proj): Linear(in_features=2048, out_features=512, bias=False)
    (o_proj): Linear(in_features=2048, out_features=2048, bias=False)
  )
  (mlp): LlamaMLP(
    (gate_proj): Linear(in_features=2048, out_features=8192, bias=False)
    (up_proj): Linear(in_features=2048, out_features=8192, bias=False)
    (down_proj): Linear(in_features=8192, out_features=2048, bias=False)
    (act_fn): SiLUActivation()
  )
  (input_layernorm): LlamaRMSNorm((2048,), eps=1e-05)
  (post_attention_layernorm): LlamaRMSNorm((2048,), eps=1e-05)
)
2026-07-19 13:50:08.478 | INFO     | llmc.compression.blockwise_optimization:run_block_loop:36 - 
block index: 5/16 
block: LlamaDecoderLayer(
  (self_attn): LlamaAttention(
    (q_proj): Linear(in_features=2048, out_features=2048, bias=False)
    (k_proj): Linear(in_features=2048, out_features=512, bias=False)
    (v_proj): Linear(in_features=2048, out_features=512, bias=False)
    (o_proj): Linear(in_features=2048, out_features=2048, bias=False)
  )
  (mlp): LlamaMLP(
    (gate_proj): Linear(in_features=2048, out_features=8192, bias=False)
    (up_proj): Linear(in_features=2048, out_features=8192, bias=False)
    (down_proj): Linear(in_features=8192, out_features=2048, bias=False)
    (act_fn): SiLUActivation()
  )
  (input_layernorm): LlamaRMSNorm((2048,), eps=1e-05)
  (post_attention_layernorm): LlamaRMSNorm((2048,), eps=1e-05)
)
2026-07-19 13:50:08.478 | INFO     | llmc.compression.blockwise_optimization:run_block_loop:36 - 
block index: 5/16 
block: LlamaDecoderLayer(
  (self_attn): LlamaAttention(
    (q_proj): Linear(in_features=2048, out_features=2048, bias=False)
    (k_proj): Linear(in_features=2048, out_features=512, bias=False)
    (v_proj): Linear(in_features=2048, out_features=512, bias=False)
    (o_proj): Linear(in_features=2048, out_features=2048, bias=False)
  )
  (mlp): LlamaMLP(
    (gate_proj): Linear(in_features=2048, out_features=8192, bias=False)
    (up_proj): Linear(in_features=2048, out_features=8192, bias=False)
    (down_proj): Linear(in_features=8192, out_features=2048, bias=False)
    (act_fn): SiLUActivation()
  )
  (input_layernorm): LlamaRMSNorm((2048,), eps=1e-05)
  (post_attention_layernorm): LlamaRMSNorm((2048,), eps=1e-05)
)
2026-07-19 13:50:08.478 | INFO     | llmc.compression.blockwise_optimization:run_block_loop:36 - 
block index: 6/16 
block: LlamaDecoderLayer(
  (self_attn): LlamaAttention(
    (q_proj): Linear(in_features=2048, out_features=2048, bias=False)
    (k_proj): Linear(in_features=2048, out_features=512, bias=False)
    (v_proj): Linear(in_features=2048, out_features=512, bias=False)
    (o_proj): Linear(in_features=2048, out_features=2048, bias=False)
  )
  (mlp): LlamaMLP(
    (gate_proj): Linear(in_features=2048, out_features=8192, bias=False)
    (up_proj): Linear(in_features=2048, out_features=8192, bias=False)
    (down_proj): Linear(in_features=8192, out_features=2048, bias=False)
    (act_fn): SiLUActivation()
  )
  (input_layernorm): LlamaRMSNorm((2048,), eps=1e-05)
  (post_attention_layernorm): LlamaRMSNorm((2048,), eps=1e-05)
)
2026-07-19 13:50:08.478 | INFO     | llmc.compression.blockwise_optimization:run_block_loop:36 - 
block index: 6/16 
block: LlamaDecoderLayer(
  (self_attn): LlamaAttention(
    (q_proj): Linear(in_features=2048, out_features=2048, bias=False)
    (k_proj): Linear(in_features=2048, out_features=512, bias=False)
    (v_proj): Linear(in_features=2048, out_features=512, bias=False)
    (o_proj): Linear(in_features=2048, out_features=2048, bias=False)
  )
  (mlp): LlamaMLP(
    (gate_proj): Linear(in_features=2048, out_features=8192, bias=False)
    (up_proj): Linear(in_features=2048, out_features=8192, bias=False)
    (down_proj): Linear(in_features=8192, out_features=2048, bias=False)
    (act_fn): SiLUActivation()
  )
  (input_layernorm): LlamaRMSNorm((2048,), eps=1e-05)
  (post_attention_layernorm): LlamaRMSNorm((2048,), eps=1e-05)
)
2026-07-19 13:50:08.478 | INFO     | llmc.compression.blockwise_optimization:run_block_loop:36 - 
block index: 7/16 
block: LlamaDecoderLayer(
  (self_attn): LlamaAttention(
    (q_proj): Linear(in_features=2048, out_features=2048, bias=False)
    (k_proj): Linear(in_features=2048, out_features=512, bias=False)
    (v_proj): Linear(in_features=2048, out_features=512, bias=False)
    (o_proj): Linear(in_features=2048, out_features=2048, bias=False)
  )
  (mlp): LlamaMLP(
    (gate_proj): Linear(in_features=2048, out_features=8192, bias=False)
    (up_proj): Linear(in_features=2048, out_features=8192, bias=False)
    (down_proj): Linear(in_features=8192, out_features=2048, bias=False)
    (act_fn): SiLUActivation()
  )
  (input_layernorm): LlamaRMSNorm((2048,), eps=1e-05)
  (post_attention_layernorm): LlamaRMSNorm((2048,), eps=1e-05)
)
2026-07-19 13:50:08.478 | INFO     | llmc.compression.blockwise_optimization:run_block_loop:36 - 
block index: 7/16 
block: LlamaDecoderLayer(
  (self_attn): LlamaAttention(
    (q_proj): Linear(in_features=2048, out_features=2048, bias=False)
    (k_proj): Linear(in_features=2048, out_features=512, bias=False)
    (v_proj): Linear(in_features=2048, out_features=512, bias=False)
    (o_proj): Linear(in_features=2048, out_features=2048, bias=False)
  )
  (mlp): LlamaMLP(
    (gate_proj): Linear(in_features=2048, out_features=8192, bias=False)
    (up_proj): Linear(in_features=2048, out_features=8192, bias=False)
    (down_proj): Linear(in_features=8192, out_features=2048, bias=False)
    (act_fn): SiLUActivation()
  )
  (input_layernorm): LlamaRMSNorm((2048,), eps=1e-05)
  (post_attention_layernorm): LlamaRMSNorm((2048,), eps=1e-05)
)
2026-07-19 13:50:08.478 | INFO     | llmc.compression.blockwise_optimization:run_block_loop:36 - 
block index: 8/16 
block: LlamaDecoderLayer(
  (self_attn): LlamaAttention(
    (q_proj): Linear(in_features=2048, out_features=2048, bias=False)
    (k_proj): Linear(in_features=2048, out_features=512, bias=False)
    (v_proj): Linear(in_features=2048, out_features=512, bias=False)
    (o_proj): Linear(in_features=2048, out_features=2048, bias=False)
  )
  (mlp): LlamaMLP(
    (gate_proj): Linear(in_features=2048, out_features=8192, bias=False)
    (up_proj): Linear(in_features=2048, out_features=8192, bias=False)
    (down_proj): Linear(in_features=8192, out_features=2048, bias=False)
    (act_fn): SiLUActivation()
  )
  (input_layernorm): LlamaRMSNorm((2048,), eps=1e-05)
  (post_attention_layernorm): LlamaRMSNorm((2048,), eps=1e-05)
)
2026-07-19 13:50:08.478 | INFO     | llmc.compression.blockwise_optimization:run_block_loop:36 - 
block index: 8/16 
block: LlamaDecoderLayer(
  (self_attn): LlamaAttention(
    (q_proj): Linear(in_features=2048, out_features=2048, bias=False)
    (k_proj): Linear(in_features=2048, out_features=512, bias=False)
    (v_proj): Linear(in_features=2048, out_features=512, bias=False)
    (o_proj): Linear(in_features=2048, out_features=2048, bias=False)
  )
  (mlp): LlamaMLP(
    (gate_proj): Linear(in_features=2048, out_features=8192, bias=False)
    (up_proj): Linear(in_features=2048, out_features=8192, bias=False)
    (down_proj): Linear(in_features=8192, out_features=2048, bias=False)
    (act_fn): SiLUActivation()
  )
  (input_layernorm): LlamaRMSNorm((2048,), eps=1e-05)
  (post_attention_layernorm): LlamaRMSNorm((2048,), eps=1e-05)
)
2026-07-19 13:50:08.478 | INFO     | llmc.compression.blockwise_optimization:run_block_loop:36 - 
block index: 9/16 
block: LlamaDecoderLayer(
  (self_attn): LlamaAttention(
    (q_proj): Linear(in_features=2048, out_features=2048, bias=False)
    (k_proj): Linear(in_features=2048, out_features=512, bias=False)
    (v_proj): Linear(in_features=2048, out_features=512, bias=False)
    (o_proj): Linear(in_features=2048, out_features=2048, bias=False)
  )
  (mlp): LlamaMLP(
    (gate_proj): Linear(in_features=2048, out_features=8192, bias=False)
    (up_proj): Linear(in_features=2048, out_features=8192, bias=False)
    (down_proj): Linear(in_features=8192, out_features=2048, bias=False)
    (act_fn): SiLUActivation()
  )
  (input_layernorm): LlamaRMSNorm((2048,), eps=1e-05)
  (post_attention_layernorm): LlamaRMSNorm((2048,), eps=1e-05)
)
2026-07-19 13:50:08.478 | INFO     | llmc.compression.blockwise_optimization:run_block_loop:36 - 
block index: 9/16 
block: LlamaDecoderLayer(
  (self_attn): LlamaAttention(
    (q_proj): Linear(in_features=2048, out_features=2048, bias=False)
    (k_proj): Linear(in_features=2048, out_features=512, bias=False)
    (v_proj): Linear(in_features=2048, out_features=512, bias=False)
    (o_proj): Linear(in_features=2048, out_features=2048, bias=False)
  )
  (mlp): LlamaMLP(
    (gate_proj): Linear(in_features=2048, out_features=8192, bias=False)
    (up_proj): Linear(in_features=2048, out_features=8192, bias=False)
    (down_proj): Linear(in_features=8192, out_features=2048, bias=False)
    (act_fn): SiLUActivation()
  )
  (input_layernorm): LlamaRMSNorm((2048,), eps=1e-05)
  (post_attention_layernorm): LlamaRMSNorm((2048,), eps=1e-05)
)
2026-07-19 13:50:08.478 | INFO     | llmc.compression.blockwise_optimization:run_block_loop:36 - 
block index: 10/16 
block: LlamaDecoderLayer(
  (self_attn): LlamaAttention(
    (q_proj): Linear(in_features=2048, out_features=2048, bias=False)
    (k_proj): Linear(in_features=2048, out_features=512, bias=False)
    (v_proj): Linear(in_features=2048, out_features=512, bias=False)
    (o_proj): Linear(in_features=2048, out_features=2048, bias=False)
  )
  (mlp): LlamaMLP(
    (gate_proj): Linear(in_features=2048, out_features=8192, bias=False)
    (up_proj): Linear(in_features=2048, out_features=8192, bias=False)
    (down_proj): Linear(in_features=8192, out_features=2048, bias=False)
    (act_fn): SiLUActivation()
  )
  (input_layernorm): LlamaRMSNorm((2048,), eps=1e-05)
  (post_attention_layernorm): LlamaRMSNorm((2048,), eps=1e-05)
)
2026-07-19 13:50:08.478 | INFO     | llmc.compression.blockwise_optimization:run_block_loop:36 - 
block index: 10/16 
block: LlamaDecoderLayer(
  (self_attn): LlamaAttention(
    (q_proj): Linear(in_features=2048, out_features=2048, bias=False)
    (k_proj): Linear(in_features=2048, out_features=512, bias=False)
    (v_proj): Linear(in_features=2048, out_features=512, bias=False)
    (o_proj): Linear(in_features=2048, out_features=2048, bias=False)
  )
  (mlp): LlamaMLP(
    (gate_proj): Linear(in_features=2048, out_features=8192, bias=False)
    (up_proj): Linear(in_features=2048, out_features=8192, bias=False)
    (down_proj): Linear(in_features=8192, out_features=2048, bias=False)
    (act_fn): SiLUActivation()
  )
  (input_layernorm): LlamaRMSNorm((2048,), eps=1e-05)
  (post_attention_layernorm): LlamaRMSNorm((2048,), eps=1e-05)
)
2026-07-19 13:50:08.478 | INFO     | llmc.compression.blockwise_optimization:run_block_loop:36 - 
block index: 11/16 
block: LlamaDecoderLayer(
  (self_attn): LlamaAttention(
    (q_proj): Linear(in_features=2048, out_features=2048, bias=False)
    (k_proj): Linear(in_features=2048, out_features=512, bias=False)
    (v_proj): Linear(in_features=2048, out_features=512, bias=False)
    (o_proj): Linear(in_features=2048, out_features=2048, bias=False)
  )
  (mlp): LlamaMLP(
    (gate_proj): Linear(in_features=2048, out_features=8192, bias=False)
    (up_proj): Linear(in_features=2048, out_features=8192, bias=False)
    (down_proj): Linear(in_features=8192, out_features=2048, bias=False)
    (act_fn): SiLUActivation()
  )
  (input_layernorm): LlamaRMSNorm((2048,), eps=1e-05)
  (post_attention_layernorm): LlamaRMSNorm((2048,), eps=1e-05)
)
2026-07-19 13:50:08.478 | INFO     | llmc.compression.blockwise_optimization:run_block_loop:36 - 
block index: 11/16 
block: LlamaDecoderLayer(
  (self_attn): LlamaAttention(
    (q_proj): Linear(in_features=2048, out_features=2048, bias=False)
    (k_proj): Linear(in_features=2048, out_features=512, bias=False)
    (v_proj): Linear(in_features=2048, out_features=512, bias=False)
    (o_proj): Linear(in_features=2048, out_features=2048, bias=False)
  )
  (mlp): LlamaMLP(
    (gate_proj): Linear(in_features=2048, out_features=8192, bias=False)
    (up_proj): Linear(in_features=2048, out_features=8192, bias=False)
    (down_proj): Linear(in_features=8192, out_features=2048, bias=False)
    (act_fn): SiLUActivation()
  )
  (input_layernorm): LlamaRMSNorm((2048,), eps=1e-05)
  (post_attention_layernorm): LlamaRMSNorm((2048,), eps=1e-05)
)
2026-07-19 13:50:08.478 | INFO     | llmc.compression.blockwise_optimization:run_block_loop:36 - 
block index: 12/16 
block: LlamaDecoderLayer(
  (self_attn): LlamaAttention(
    (q_proj): Linear(in_features=2048, out_features=2048, bias=False)
    (k_proj): Linear(in_features=2048, out_features=512, bias=False)
    (v_proj): Linear(in_features=2048, out_features=512, bias=False)
    (o_proj): Linear(in_features=2048, out_features=2048, bias=False)
  )
  (mlp): LlamaMLP(
    (gate_proj): Linear(in_features=2048, out_features=8192, bias=False)
    (up_proj): Linear(in_features=2048, out_features=8192, bias=False)
    (down_proj): Linear(in_features=8192, out_features=2048, bias=False)
    (act_fn): SiLUActivation()
  )
  (input_layernorm): LlamaRMSNorm((2048,), eps=1e-05)
  (post_attention_layernorm): LlamaRMSNorm((2048,), eps=1e-05)
)
2026-07-19 13:50:08.478 | INFO     | llmc.compression.blockwise_optimization:run_block_loop:36 - 
block index: 12/16 
block: LlamaDecoderLayer(
  (self_attn): LlamaAttention(
    (q_proj): Linear(in_features=2048, out_features=2048, bias=False)
    (k_proj): Linear(in_features=2048, out_features=512, bias=False)
    (v_proj): Linear(in_features=2048, out_features=512, bias=False)
    (o_proj): Linear(in_features=2048, out_features=2048, bias=False)
  )
  (mlp): LlamaMLP(
    (gate_proj): Linear(in_features=2048, out_features=8192, bias=False)
    (up_proj): Linear(in_features=2048, out_features=8192, bias=False)
    (down_proj): Linear(in_features=8192, out_features=2048, bias=False)
    (act_fn): SiLUActivation()
  )
  (input_layernorm): LlamaRMSNorm((2048,), eps=1e-05)
  (post_attention_layernorm): LlamaRMSNorm((2048,), eps=1e-05)
)
2026-07-19 13:50:08.479 | INFO     | llmc.compression.blockwise_optimization:run_block_loop:36 - 
block index: 13/16 
block: LlamaDecoderLayer(
  (self_attn): LlamaAttention(
    (q_proj): Linear(in_features=2048, out_features=2048, bias=False)
    (k_proj): Linear(in_features=2048, out_features=512, bias=False)
    (v_proj): Linear(in_features=2048, out_features=512, bias=False)
    (o_proj): Linear(in_features=2048, out_features=2048, bias=False)
  )
  (mlp): LlamaMLP(
    (gate_proj): Linear(in_features=2048, out_features=8192, bias=False)
    (up_proj): Linear(in_features=2048, out_features=8192, bias=False)
    (down_proj): Linear(in_features=8192, out_features=2048, bias=False)
    (act_fn): SiLUActivation()
  )
  (input_layernorm): LlamaRMSNorm((2048,), eps=1e-05)
  (post_attention_layernorm): LlamaRMSNorm((2048,), eps=1e-05)
)
2026-07-19 13:50:08.479 | INFO     | llmc.compression.blockwise_optimization:run_block_loop:36 - 
block index: 13/16 
block: LlamaDecoderLayer(
  (self_attn): LlamaAttention(
    (q_proj): Linear(in_features=2048, out_features=2048, bias=False)
    (k_proj): Linear(in_features=2048, out_features=512, bias=False)
    (v_proj): Linear(in_features=2048, out_features=512, bias=False)
    (o_proj): Linear(in_features=2048, out_features=2048, bias=False)
  )
  (mlp): LlamaMLP(
    (gate_proj): Linear(in_features=2048, out_features=8192, bias=False)
    (up_proj): Linear(in_features=2048, out_features=8192, bias=False)
    (down_proj): Linear(in_features=8192, out_features=2048, bias=False)
    (act_fn): SiLUActivation()
  )
  (input_layernorm): LlamaRMSNorm((2048,), eps=1e-05)
  (post_attention_layernorm): LlamaRMSNorm((2048,), eps=1e-05)
)
2026-07-19 13:50:08.479 | INFO     | llmc.compression.blockwise_optimization:run_block_loop:36 - 
block index: 14/16 
block: LlamaDecoderLayer(
  (self_attn): LlamaAttention(
    (q_proj): Linear(in_features=2048, out_features=2048, bias=False)
    (k_proj): Linear(in_features=2048, out_features=512, bias=False)
    (v_proj): Linear(in_features=2048, out_features=512, bias=False)
    (o_proj): Linear(in_features=2048, out_features=2048, bias=False)
  )
  (mlp): LlamaMLP(
    (gate_proj): Linear(in_features=2048, out_features=8192, bias=False)
    (up_proj): Linear(in_features=2048, out_features=8192, bias=False)
    (down_proj): Linear(in_features=8192, out_features=2048, bias=False)
    (act_fn): SiLUActivation()
  )
  (input_layernorm): LlamaRMSNorm((2048,), eps=1e-05)
  (post_attention_layernorm): LlamaRMSNorm((2048,), eps=1e-05)
)
2026-07-19 13:50:08.479 | INFO     | llmc.compression.blockwise_optimization:run_block_loop:36 - 
block index: 14/16 
block: LlamaDecoderLayer(
  (self_attn): LlamaAttention(
    (q_proj): Linear(in_features=2048, out_features=2048, bias=False)
    (k_proj): Linear(in_features=2048, out_features=512, bias=False)
    (v_proj): Linear(in_features=2048, out_features=512, bias=False)
    (o_proj): Linear(in_features=2048, out_features=2048, bias=False)
  )
  (mlp): LlamaMLP(
    (gate_proj): Linear(in_features=2048, out_features=8192, bias=False)
    (up_proj): Linear(in_features=2048, out_features=8192, bias=False)
    (down_proj): Linear(in_features=8192, out_features=2048, bias=False)
    (act_fn): SiLUActivation()
  )
  (input_layernorm): LlamaRMSNorm((2048,), eps=1e-05)
  (post_attention_layernorm): LlamaRMSNorm((2048,), eps=1e-05)
)
2026-07-19 13:50:08.479 | INFO     | llmc.compression.blockwise_optimization:run_block_loop:36 - 
block index: 15/16 
block: LlamaDecoderLayer(
  (self_attn): LlamaAttention(
    (q_proj): Linear(in_features=2048, out_features=2048, bias=False)
    (k_proj): Linear(in_features=2048, out_features=512, bias=False)
    (v_proj): Linear(in_features=2048, out_features=512, bias=False)
    (o_proj): Linear(in_features=2048, out_features=2048, bias=False)
  )
  (mlp): LlamaMLP(
    (gate_proj): Linear(in_features=2048, out_features=8192, bias=False)
    (up_proj): Linear(in_features=2048, out_features=8192, bias=False)
    (down_proj): Linear(in_features=8192, out_features=2048, bias=False)
    (act_fn): SiLUActivation()
  )
  (input_layernorm): LlamaRMSNorm((2048,), eps=1e-05)
  (post_attention_layernorm): LlamaRMSNorm((2048,), eps=1e-05)
)
2026-07-19 13:50:08.479 | INFO     | llmc.compression.blockwise_optimization:run_block_loop:36 - 
block index: 15/16 
block: LlamaDecoderLayer(
  (self_attn): LlamaAttention(
    (q_proj): Linear(in_features=2048, out_features=2048, bias=False)
    (k_proj): Linear(in_features=2048, out_features=512, bias=False)
    (v_proj): Linear(in_features=2048, out_features=512, bias=False)
    (o_proj): Linear(in_features=2048, out_features=2048, bias=False)
  )
  (mlp): LlamaMLP(
    (gate_proj): Linear(in_features=2048, out_features=8192, bias=False)
    (up_proj): Linear(in_features=2048, out_features=8192, bias=False)
    (down_proj): Linear(in_features=8192, out_features=2048, bias=False)
    (act_fn): SiLUActivation()
  )
  (input_layernorm): LlamaRMSNorm((2048,), eps=1e-05)
  (post_attention_layernorm): LlamaRMSNorm((2048,), eps=1e-05)
)
2026-07-19 13:50:08.481 | INFO     | llmc.compression.quantization.base_blockwise_quantization:deploy:971 - -- deploy_fake_quant_model start --
2026-07-19 13:50:08.481 | INFO     | llmc.compression.quantization.base_blockwise_quantization:deploy:971 - -- deploy_fake_quant_model start --
…
