…
Loading weights:  66%|██████▌   | 263/398 [00:01<00:00, 143.37it/s]
Loading weights:  70%|███████   | 279/398 [00:01<00:00, 144.94it/s]
Loading weights:  74%|███████▍  | 294/398 [00:02<00:00, 138.72it/s]
Loading weights:  79%|███████▉  | 316/398 [00:02<00:00, 146.62it/s]
Loading weights:  84%|████████▎ | 333/398 [00:02<00:00, 151.67it/s]
Loading weights:  88%|████████▊ | 352/398 [00:02<00:00, 160.14it/s]
Loading weights: 100%|██████████| 398/398 [00:02<00:00, 165.82it/s]
2026-07-20 11:38:04.285 | INFO     | llmc.models.base_model:build_model:242 - self.model : Qwen3ForCausalLM(
  (model): Qwen3Model(
    (embed_tokens): Embedding(151936, 2560)
    (layers): ModuleList(
      (0-35): 36 x Qwen3DecoderLayer(
        (self_attn): Qwen3Attention(
          (q_proj): Linear(in_features=2560, out_features=4096, bias=False)
          (k_proj): Linear(in_features=2560, out_features=1024, bias=False)
          (v_proj): Linear(in_features=2560, out_features=1024, bias=False)
          (o_proj): Linear(in_features=4096, out_features=2560, bias=False)
          (q_norm): Qwen3RMSNorm((128,), eps=1e-06)
          (k_norm): Qwen3RMSNorm((128,), eps=1e-06)
        )
        (mlp): Qwen3MLP(
          (gate_proj): Linear(in_features=2560, out_features=9728, bias=False)
          (up_proj): Linear(in_features=2560, out_features=9728, bias=False)
          (down_proj): Linear(in_features=9728, out_features=2560, bias=False)
          (act_fn): SiLUActivation()
        )
        (input_layernorm): Qwen3RMSNorm((2560,), eps=1e-06)
        (post_attention_layernorm): Qwen3RMSNorm((2560,), eps=1e-06)
      )
    )
    (norm): Qwen3RMSNorm((2560,), eps=1e-06)
    (rotary_emb): Qwen3RotaryEmbedding()
  )
  (lm_head): Linear(in_features=2560, out_features=151936, bias=False)
)
2026-07-20 11:38:04.285 | INFO     | llmc.models.base_model:build_model:242 - self.model : Qwen3ForCausalLM(
  (model): Qwen3Model(
    (embed_tokens): Embedding(151936, 2560)
    (layers): ModuleList(
      (0-35): 36 x Qwen3DecoderLayer(
        (self_attn): Qwen3Attention(
          (q_proj): Linear(in_features=2560, out_features=4096, bias=False)
          (k_proj): Linear(in_features=2560, out_features=1024, bias=False)
          (v_proj): Linear(in_features=2560, out_features=1024, bias=False)
          (o_proj): Linear(in_features=4096, out_features=2560, bias=False)
          (q_norm): Qwen3RMSNorm((128,), eps=1e-06)
          (k_norm): Qwen3RMSNorm((128,), eps=1e-06)
        )
        (mlp): Qwen3MLP(
          (gate_proj): Linear(in_features=2560, out_features=9728, bias=False)
          (up_proj): Linear(in_features=2560, out_features=9728, bias=False)
          (down_proj): Linear(in_features=9728, out_features=2560, bias=False)
          (act_fn): SiLUActivation()
        )
        (input_layernorm): Qwen3RMSNorm((2560,), eps=1e-06)
        (post_attention_layernorm): Qwen3RMSNorm((2560,), eps=1e-06)
      )
    )
    (norm): Qwen3RMSNorm((2560,), eps=1e-06)
    (rotary_emb): Qwen3RotaryEmbedding()
  )
  (lm_head): Linear(in_features=2560, out_features=151936, bias=False)
)
2026-07-20 11:38:04.289 | INFO     | llmc.models.base_model:add_layernorms_class:277 - _TRANSFORMERS_LN_TYPES_ : [<class 'torch.nn.modules.normalization.LayerNorm'>, <class 'transformers.models.qwen3.modeling_qwen3.Qwen3RMSNorm'>]
2026-07-20 11:38:04.289 | INFO     | llmc.models.base_model:add_layernorms_class:277 - _TRANSFORMERS_LN_TYPES_ : [<class 'torch.nn.modules.normalization.LayerNorm'>, <class 'transformers.models.qwen3.modeling_qwen3.Qwen3RMSNorm'>]
…
    "full_attention",
    "full_attention",
    "full_attention"
  ],
  "max_position_embeddings": 32768,
  "max_window_layers": 36,
  "model_type": "qwen3",
  "num_attention_heads": 32,
  "num_hidden_layers": 36,
  "num_key_value_heads": 8,
  "pad_token_id": null,
  "rms_norm_eps": 1e-06,
  "rope_parameters": {
    "rope_theta": 1000000,
    "rope_type": "default"
  },
  "sliding_window": null,
  "tie_word_embeddings": true,
  "transformers_version": "5.14.1",
  "use_cache": false,
  "use_sliding_window": false,
  "vocab_size": 151936
}
 
Model: 
Qwen3ForCausalLM(
  (model): Qwen3Model(
    (embed_tokens): Embedding(151936, 2560)
    (layers): ModuleList(
      (0-35): 36 x Qwen3DecoderLayer(
        (self_attn): Qwen3Attention(
          (q_proj): Linear(in_features=2560, out_features=4096, bias=False)
          (k_proj): Linear(in_features=2560, out_features=1024, bias=False)
          (v_proj): Linear(in_features=2560, out_features=1024, bias=False)
          (o_proj): Linear(in_features=4096, out_features=2560, bias=False)
          (q_norm): Qwen3RMSNorm((128,), eps=1e-06)
          (k_norm): Qwen3RMSNorm((128,), eps=1e-06)
        )
        (mlp): Qwen3MLP(
          (gate_proj): Linear(in_features=2560, out_features=9728, bias=False)
          (up_proj): Linear(in_features=2560, out_features=9728, bias=False)
          (down_proj): Linear(in_features=9728, out_features=2560, bias=False)
          (act_fn): SiLUActivation()
        )
        (input_layernorm): Qwen3RMSNorm((2560,), eps=1e-06)
        (post_attention_layernorm): Qwen3RMSNorm((2560,), eps=1e-06)
      )
    )
    (norm): Qwen3RMSNorm((2560,), eps=1e-06)
    (rotary_emb): Qwen3RotaryEmbedding()
  )
  (lm_head): Linear(in_features=2560, out_features=151936, bias=False)
)
2026-07-20 11:38:04.290 | INFO     | __main__:main:32 - model: 
Config: 
Qwen3Config {
  "architectures": [
    "Qwen3ForCausalLM"
  ],
  "attention_bias": false,
  "attention_dropout": 0.0,
  "bos_token_id": 151643,
  "dtype": "bfloat16",
  "eos_token_id": 151643,
  "head_dim": 128,
  "hidden_act": "silu",
  "hidden_size": 2560,
  "initializer_range": 0.02,
…
  m.register_buffer('buf_qmax', torch.tensor(max_int).to(self.dev))
/mnt/d/LightCompress/llmc/compression/quantization/base_blockwise_quantization.py:372: UserWarning: To copy construct from a tensor, it is recommended to use sourceTensor.detach().clone() or sourceTensor.detach().clone().requires_grad_(True), rather than torch.tensor(sourceTensor).
  m.register_buffer('buf_qmin', torch.tensor(min_int).to(self.dev))
2026-07-20 11:38:29.851 | INFO     | llmc.compression.blockwise_optimization:run_block_loop:36 - 
block index: 0/36 
block: Qwen3DecoderLayer(
  (self_attn): Qwen3Attention(
    (q_proj): Linear(in_features=2560, out_features=4096, bias=False)
    (k_proj): Linear(in_features=2560, out_features=1024, bias=False)
    (v_proj): Linear(in_features=2560, out_features=1024, bias=False)
    (o_proj): Linear(in_features=4096, out_features=2560, bias=False)
    (q_norm): Qwen3RMSNorm((128,), eps=1e-06)
    (k_norm): Qwen3RMSNorm((128,), eps=1e-06)
  )
  (mlp): Qwen3MLP(
    (gate_proj): Linear(in_features=2560, out_features=9728, bias=False)
    (up_proj): Linear(in_features=2560, out_features=9728, bias=False)
    (down_proj): Linear(in_features=9728, out_features=2560, bias=False)
    (act_fn): SiLUActivation()
  )
  (input_layernorm): Qwen3RMSNorm((2560,), eps=1e-06)
  (post_attention_layernorm): Qwen3RMSNorm((2560,), eps=1e-06)
)
2026-07-20 11:38:29.851 | INFO     | llmc.compression.blockwise_optimization:run_block_loop:36 - 
block index: 0/36 
block: Qwen3DecoderLayer(
  (self_attn): Qwen3Attention(
    (q_proj): Linear(in_features=2560, out_features=4096, bias=False)
    (k_proj): Linear(in_features=2560, out_features=1024, bias=False)
    (v_proj): Linear(in_features=2560, out_features=1024, bias=False)
    (o_proj): Linear(in_features=4096, out_features=2560, bias=False)
    (q_norm): Qwen3RMSNorm((128,), eps=1e-06)
    (k_norm): Qwen3RMSNorm((128,), eps=1e-06)
  )
  (mlp): Qwen3MLP(
    (gate_proj): Linear(in_features=2560, out_features=9728, bias=False)
    (up_proj): Linear(in_features=2560, out_features=9728, bias=False)
    (down_proj): Linear(in_features=9728, out_features=2560, bias=False)
    (act_fn): SiLUActivation()
  )
  (input_layernorm): Qwen3RMSNorm((2560,), eps=1e-06)
  (post_attention_layernorm): Qwen3RMSNorm((2560,), eps=1e-06)
)
2026-07-20 11:38:29.917 | INFO     | llmc.compression.quantization.base_blockwise_quantization:block_opt:416 - input_feat_modules: {'self_attn.q_proj': Linear(in_features=2560, out_features=4096, b
…
2026-07-20 11:38:32.290 | INFO     | llmc.compression.quantization.base_blockwise_quantization:block_transform:484 - Start transform the 0-th block
2026-07-20 11:38:32.290 | INFO     | llmc.compression.quantization.base_blockwise_quantization:block_transform:493 - subset: {'layers': {'self_attn.q_proj': Linear(in_features=2560, out_features=4096, bias=False), 'self_attn.k_proj': Linear(in_features=2560, out_features=1024, bias=False), 'self_attn.v_proj': Linear(in_features=2560, out_features=1024, bias=False)}, 'prev_op': [Qwen3RMSNorm((2560,), eps=1e-06)], 'input': ['self_attn.q_proj'], 'inspect': Qwen3Attention(
  (q_proj): Linear(in_features=2560, out_features=4096, bias=False)
  (k_proj): Linear(in_features=2560, out_features=1024, bias=False)
  (v_proj): Linear(in_features=2560, out_features=1024, bias=False)
  (o_proj): Linear(in_features=4096, out_features=2560, bias=False)
  (q_norm): Qwen3RMSNorm((128,), eps=1e-06)
  (k_norm): Qwen3RMSNorm((128,), eps=1e-06)
), 'has_kwargs': True}
2026-07-20 11:38:32.290 | INFO     | llmc.compression.quantization.base_blockwise_quantization:block_transform:493 - subset: {'layers': {'self_attn.q_proj': Linear(in_features=2560, out_features=4096, bias=False), 'self_attn.k_proj': Linear(in_features=2560, out_features=1024, bias=False), 'self_attn.v_proj': Linear(in_features=2560, out_features=1024, bias=False)}, 'prev_op': [Qwen3RMSNorm((2560,), eps=1e-06)], 'input': ['self_attn.q_proj'], 'inspect': Qwen3Attention(
  (q_proj): Linear(in_features=2560, out_features=4096, bias=False)
  (k_proj): Linear(in_features=2560, out_features=1024, bias=False)
  (v_proj): Linear(in_features=2560, out_features=1024, bias=False)
  (o_proj): Linear(in_features=4096, out_features=2560, bias=False)
  (q_norm): Qwen3RMSNorm((128,), eps=1e-06)
  (k_norm): Qwen3RMSNorm((128,), eps=1e-06)
), 'has_kwargs': True}
2026-07-20 11:38:33.116 | INFO     | llmc.compression.quantization.gptq:update_layer_with_transformed_weights:184 - error 24.907363891601562
2026-07-20 11:38:33.116 | INFO     | llmc.compression.quantization.gptq:update_layer_with_transformed_weights:184 - error 24.907363891601562
…
2026-07-20 11:38:35.229 | INFO     | llmc.models.base_model:replace_module_subset:432 - replace >>> self_attn.o_proj in 0-th block
2026-07-20 11:38:35.229 | INFO     | llmc.models.base_model:replace_module_subset:432 - replace >>> self_attn.o_proj in 0-th block
2026-07-20 11:38:35.934 | INFO     | llmc.compression.quantization.base_blockwise_quantization:block_transform:493 - subset: {'layers': {'mlp.gate_proj': Linear(in_features=2560, out_features=9728, bias=False), 'mlp.up_proj': Linear(in_features=2560, out_features=9728, bias=False)}, 'prev_op': [Qwen3RMSNorm((2560,), eps=1e-06)], 'input': ['mlp.gate_proj'], 'inspect': Qwen3MLP(
  (gate_proj): Linear(in_features=2560, out_features=9728, bias=False)
  (up_proj): Linear(in_features=2560, out_features=9728, bias=False)
  (down_proj): Linear(in_features=9728, out_features=2560, bias=False)
  (act_fn): SiLUActivation()
), 'has_kwargs': False, 'is_mlp': True}
2026-07-20 11:38:35.934 | INFO     | llmc.compression.quantization.base_blockwise_quantization:block_transform:493 - subset: {'layers': {'mlp.gate_proj': Linear(in_features=2560, out_features=9728, bias=False), 'mlp.up_proj': Linear(in_features=2560, out_features=9728, bias=False)}, 'prev_op': [Qwen3RMSNorm((2560,), eps=1e-06)], 'input': ['mlp.gate_proj'], 'inspect': Qwen3MLP(
  (gate_proj): Linear(in_features=2560, out_features=9728, bias=False)
  (up_proj): Linear(in_features=2560, out_features=9728, bias=False)
  (down_proj): Linear(in_features=9728, out_features=2560, bias=False)
  (act_fn): SiLUActivation()
), 'has_kwargs': False, 'is_mlp': True}
2026-07-20 11:38:36.307 | INFO     | llmc.compression.quantization.gptq:update_layer_with_transformed_weights:184 - error 1435.827392578125
2026-07-20 11:38:36.307 | INFO     | llmc.compression.quantization.gptq:update_layer_with_transformed_weights:184 - error 1435.827392578125
2026-07-20 11:38:36.718 | INFO     | llmc.compression.quantization.gptq:update_layer_with_transformed_weights:184 - error 1255.984130859375
…
