…
  "transformers_version": "4.57.6",
  "use_cache": false,
  "vocab_size": 128256
}

`torch_dtype` is deprecated! Use `dtype` instead!

Fetching 2 files:   0%|          | 0/2 [00:00<?, ?it/s]
Fetching 2 files:  50%|█████     | 1/2 [00:52<00:52, 52.24s/it]
Fetching 2 files: 100%|██████████| 2/2 [00:52<00:00, 26.12s/it]

Loading checkpoint shards:   0%|          | 0/2 [00:00<?, ?it/s]
Loading checkpoint shards: 100%|██████████| 2/2 [00:00<00:00, 132.92it/s]
2026-07-19 03:24:05.041 | INFO     | llmc.models.base_model:build_model:242 - self.model : LlamaForCausalLM(
  (model): LlamaModel(
    (embed_tokens): Embedding(128256, 3072)
    (layers): ModuleList(
      (0-27): 28 x LlamaDecoderLayer(
        (self_attn): LlamaAttention(
          (q_proj): Linear(in_features=3072, out_features=3072, bias=False)
          (k_proj): Linear(in_features=3072, out_features=1024, bias=False)
          (v_proj): Linear(in_features=3072, out_features=1024, bias=False)
          (o_proj): Linear(in_features=3072, out_features=3072, bias=False)
        )
        (mlp): LlamaMLP(
          (gate_proj): Linear(in_features=3072, out_features=8192, bias=False)
          (up_proj): Linear(in_features=3072, out_features=8192, bias=False)
          (down_proj): Linear(in_features=8192, out_features=3072, bias=False)
          (act_fn): SiLUActivation()
        )
        (input_layernorm): LlamaRMSNorm((3072,), eps=1e-05)
        (post_attention_layernorm): LlamaRMSNorm((3072,), eps=1e-05)
      )
    )
    (norm): LlamaRMSNorm((3072,), eps=1e-05)
    (rotary_emb): LlamaRotaryEmbedding()
  )
  (lm_head): Linear(in_features=3072, out_features=128256, bias=False)
)
2026-07-19 03:24:05.041 | INFO     | llmc.models.base_model:build_model:242 - self.model : LlamaForCausalLM(
  (model): LlamaModel(
    (embed_tokens): Embedding(128256, 3072)
    (layers): ModuleList(
      (0-27): 28 x LlamaDecoderLayer(
        (self_attn): LlamaAttention(
          (q_proj): Linear(in_features=3072, out_features=3072, bias=False)
          (k_proj): Linear(in_features=3072, out_features=1024, bias=False)
          (v_proj): Linear(in_features=3072, out_features=1024, bias=False)
          (o_proj): Linear(in_features=3072, out_features=3072, bias=False)
        )
        (mlp): LlamaMLP(
          (gate_proj): Linear(in_features=3072, out_features=8192, bias=False)
          (up_proj): Linear(in_features=3072, out_features=8192, bias=False)
          (down_proj): Linear(in_features=8192, out_features=3072, bias=False)
          (act_fn): SiLUActivation()
        )
        (input_layernorm): LlamaRMSNorm((3072,), eps=1e-05)
        (post_attention_layernorm): LlamaRMSNorm((3072,), eps=1e-05)
      )
    )
    (norm): LlamaRMSNorm((3072,), eps=1e-05)
    (rotary_emb): LlamaRotaryEmbedding()
  )
  (lm_head): Linear(in_features=3072, out_features=128256, bias=False)
)
2026-07-19 03:24:05.043 | INFO     | llmc.models.base_model:add_layernorms_class:277 - _TRANSFORMERS_LN_TYPES_ : [<class 'torch.nn.modules.normalization.LayerNorm'>, <class 'transformers.models.llama.modeling_llama.LlamaRMSNorm'>]
2026-07-19 03:24:05.043 | INFO     | llmc.models.base_model:add_layernorms_class:277 - _TRANSFORMERS_LN_TYPES_ : [<class 'torch.nn.modules.normalization.LayerNorm'>, <class 'transformers.models.llama.modeling_llama.LlamaRMSNorm'>]
…
  "intermediate_size": 8192,
  "max_position_embeddings": 131072,
  "mlp_bias": false,
  "model_type": "llama",
  "num_attention_heads": 24,
  "num_hidden_layers": 28,
  "num_key_value_heads": 8,
  "pretraining_tp": 1,
  "rms_norm_eps": 1e-05,
  "rope_scaling": {
    "factor": 32.0,
    "high_freq_factor": 4.0,
    "low_freq_factor": 1.0,
    "original_max_position_embeddings": 8192,
    "rope_type": "llama3"
  },
  "rope_theta": 500000.0,
  "tie_word_embeddings": true,
  "transformers_version": "4.57.6",
  "use_cache": false,
  "vocab_size": 128256
}
 
Model: 
LlamaForCausalLM(
  (model): LlamaModel(
    (embed_tokens): Embedding(128256, 3072)
    (layers): ModuleList(
      (0-27): 28 x LlamaDecoderLayer(
        (self_attn): LlamaAttention(
          (q_proj): Linear(in_features=3072, out_features=3072, bias=False)
          (k_proj): Linear(in_features=3072, out_features=1024, bias=False)
          (v_proj): Linear(in_features=3072, out_features=1024, bias=False)
          (o_proj): Linear(in_features=3072, out_features=3072, bias=False)
        )
        (mlp): LlamaMLP(
          (gate_proj): Linear(in_features=3072, out_features=8192, bias=False)
          (up_proj): Linear(in_features=3072, out_features=8192, bias=False)
          (down_proj): Linear(in_features=8192, out_features=3072, bias=False)
          (act_fn): SiLUActivation()
        )
        (input_layernorm): LlamaRMSNorm((3072,), eps=1e-05)
        (post_attention_layernorm): LlamaRMSNorm((3072,), eps=1e-05)
      )
    )
    (norm): LlamaRMSNorm((3072,), eps=1e-05)
    (rotary_emb): LlamaRotaryEmbedding()
  )
  (lm_head): Linear(in_features=3072, out_features=128256, bias=False)
)
2026-07-19 03:24:05.045 | INFO     | __main__:main:32 - model: 
Config: 
LlamaConfig {
  "architectures": [
    "LlamaForCausalLM"
  ],
  "attention_bias": false,
  "attention_dropout": 0.0,
  "bos_token_id": 128000,
  "dtype": "bfloat16",
  "eos_token_id": 128001,
  "head_dim": 128,
  "hidden_act": "silu",
  "hidden_size": 3072,
  "initializer_range": 0.02,
…
  m.register_buffer('buf_qmax', torch.tensor(max_int).to(self.dev))
/mnt/e/LightCompress/llmc/compression/quantization/base_blockwise_quantization.py:372: UserWarning: To copy construct from a tensor, it is recommended to use sourceTensor.detach().clone() or sourceTensor.detach().clone().requires_grad_(True), rather than torch.tensor(sourceTensor).
  m.register_buffer('buf_qmin', torch.tensor(min_int).to(self.dev))
2026-07-19 03:24:27.419 | INFO     | llmc.compression.blockwise_optimization:run_block_loop:36 - 
block index: 0/28 
block: LlamaDecoderLayer(
  (self_attn): LlamaAttention(
    (q_proj): Linear(in_features=3072, out_features=3072, bias=False)
    (k_proj): Linear(in_features=3072, out_features=1024, bias=False)
    (v_proj): Linear(in_features=3072, out_features=1024, bias=False)
    (o_proj): Linear(in_features=3072, out_features=3072, bias=False)
  )
  (mlp): LlamaMLP(
    (gate_proj): Linear(in_features=3072, out_features=8192, bias=False)
    (up_proj): Linear(in_features=3072, out_features=8192, bias=False)
    (down_proj): Linear(in_features=8192, out_features=3072, bias=False)
    (act_fn): SiLUActivation()
  )
  (input_layernorm): LlamaRMSNorm((3072,), eps=1e-05)
  (post_attention_layernorm): LlamaRMSNorm((3072,), eps=1e-05)
)
2026-07-19 03:24:27.419 | INFO     | llmc.compression.blockwise_optimization:run_block_loop:36 - 
block index: 0/28 
block: LlamaDecoderLayer(
  (self_attn): LlamaAttention(
    (q_proj): Linear(in_features=3072, out_features=3072, bias=False)
    (k_proj): Linear(in_features=3072, out_features=1024, bias=False)
    (v_proj): Linear(in_features=3072, out_features=1024, bias=False)
    (o_proj): Linear(in_features=3072, out_features=3072, bias=False)
  )
  (mlp): LlamaMLP(
    (gate_proj): Linear(in_features=3072, out_features=8192, bias=False)
    (up_proj): Linear(in_features=3072, out_features=8192, bias=False)
    (down_proj): Linear(in_features=8192, out_features=3072, bias=False)
    (act_fn): SiLUActivation()
  )
  (input_layernorm): LlamaRMSNorm((3072,), eps=1e-05)
  (post_attention_layernorm): LlamaRMSNorm((3072,), eps=1e-05)
)
2026-07-19 03:24:27.446 | INFO     | llmc.compression.quantization.base_blockwise_quantization:block_opt:416 - input_feat_modules: {'self_attn.q_proj': Linear(in_features=3072, out_features=3072, b
…
2026-07-19 03:24:29.910 | INFO     | llmc.compression.quantization.base_blockwise_quantization:block_transform:484 - Start transform the 0-th block
2026-07-19 03:24:29.910 | INFO     | llmc.compression.quantization.base_blockwise_quantization:block_transform:493 - subset: {'layers': {'self_attn.q_proj': Linear(in_features=3072, out_features=3072, bias=False), 'self_attn.k_proj': Linear(in_features=3072, out_features=1024, bias=False), 'self_attn.v_proj': Linear(in_features=3072, out_features=1024, bias=False)}, 'prev_op': [LlamaRMSNorm((3072,), eps=1e-05)], 'input': ['self_attn.q_proj'], 'inspect': LlamaAttention(
  (q_proj): Linear(in_features=3072, out_features=3072, bias=False)
  (k_proj): Linear(in_features=3072, out_features=1024, bias=False)
  (v_proj): Linear(in_features=3072, out_features=1024, bias=False)
  (o_proj): Linear(in_features=3072, out_features=3072, bias=False)
), 'has_kwargs': True}
2026-07-19 03:24:29.910 | INFO     | llmc.compression.quantization.base_blockwise_quantization:block_transform:493 - subset: {'layers': {'self_attn.q_proj': Linear(in_features=3072, out_features=3072, bias=False), 'self_attn.k_proj': Linear(in_features=3072, out_features=1024, bias=False), 'self_attn.v_proj': Linear(in_features=3072, out_features=1024, bias=False)}, 'prev_op': [LlamaRMSNorm((3072,), eps=1e-05)], 'input': ['self_attn.q_proj'], 'inspect': LlamaAttention(
  (q_proj): Linear(in_features=3072, out_features=3072, bias=False)
  (k_proj): Linear(in_features=3072, out_features=1024, bias=False)
  (v_proj): Linear(in_features=3072, out_features=1024, bias=False)
  (o_proj): Linear(in_features=3072, out_features=3072, bias=False)
), 'has_kwargs': True}
2026-07-19 03:24:30.631 | INFO     | llmc.compression.quantization.gptq:update_layer_with_transformed_weights:184 - error 1732.5479736328125
2026-07-19 03:24:30.631 | INFO     | llmc.compression.quantization.gptq:update_layer_with_transformed_weights:184 - error 1732.5479736328125
2026-07-19 03:24:31.257 | INFO     | llmc.compression.quantization.gptq:update_layer_with_transformed_weights:184 - error 928.447021484375
…
2026-07-19 03:24:33.302 | INFO     | llmc.models.base_model:replace_module_subset:432 - replace >>> self_attn.o_proj in 0-th block
2026-07-19 03:24:33.302 | INFO     | llmc.models.base_model:replace_module_subset:432 - replace >>> self_attn.o_proj in 0-th block
2026-07-19 03:24:34.185 | INFO     | llmc.compression.quantization.base_blockwise_quantization:block_transform:493 - subset: {'layers': {'mlp.gate_proj': Linear(in_features=3072, out_features=8192, bias=False), 'mlp.up_proj': Linear(in_features=3072, out_features=8192, bias=False)}, 'prev_op': [LlamaRMSNorm((3072,), eps=1e-05)], 'input': ['mlp.gate_proj'], 'inspect': LlamaMLP(
  (gate_proj): Linear(in_features=3072, out_features=8192, bias=False)
  (up_proj): Linear(in_features=3072, out_features=8192, bias=False)
  (down_proj): Linear(in_features=8192, out_features=3072, bias=False)
  (act_fn): SiLUActivation()
), 'has_kwargs': False, 'is_mlp': True}
2026-07-19 03:24:34.185 | INFO     | llmc.compression.quantization.base_blockwise_quantization:block_transform:493 - subset: {'layers': {'mlp.gate_proj': Linear(in_features=3072, out_features=8192, bias=False), 'mlp.up_proj': Linear(in_features=3072, out_features=8192, bias=False)}, 'prev_op': [LlamaRMSNorm((3072,), eps=1e-05)], 'input': ['mlp.gate_proj'], 'inspect': LlamaMLP(
  (gate_proj): Linear(in_features=3072, out_features=8192, bias=False)
  (up_proj): Linear(in_features=3072, out_features=8192, bias=False)
  (down_proj): Linear(in_features=8192, out_features=3072, bias=False)
  (act_fn): SiLUActivation()
), 'has_kwargs': False, 'is_mlp': True}
2026-07-19 03:24:34.838 | INFO     | llmc.compression.quantization.gptq:update_layer_with_transformed_weights:184 - error 1364.0064697265625
2026-07-19 03:24:34.838 | INFO     | llmc.compression.quantization.gptq:update_layer_with_transformed_weights:184 - error 1364.0064697265625
2026-07-19 03:24:35.461 | INFO     | llmc.compression.quantization.gptq:update_layer_with_transformed_weights:184 - error 1216.95556640625
…
