…
Loading weights:  56%|█████▌    | 142/254 [00:01<00:00, 139.96it/s]
Loading weights:  65%|██████▍   | 164/254 [00:01<00:00, 159.14it/s]
Loading weights:  72%|███████▏  | 182/254 [00:01<00:00, 162.00it/s]
Loading weights:  78%|███████▊  | 199/254 [00:01<00:00, 151.66it/s]
Loading weights:  85%|████████▌ | 216/254 [00:01<00:00, 154.74it/s]
Loading weights:  91%|█████████▏| 232/254 [00:01<00:00, 148.46it/s]
Loading weights: 100%|██████████| 254/254 [00:01<00:00, 141.94it/s]
2026-07-20 07:57:29.426 | INFO     | llmc.models.base_model:build_model:242 - self.model : LlamaForCausalLM(
  (model): LlamaModel(
    (embed_tokens): Embedding(128256, 3072)
    (layers): ModuleList(
      (0-27): 28 x LlamaDecoderLayer(
        (self_attn): LlamaAttention(
          (q_proj): Linear(in_features=3072, out_features=3072, bias=False)
          (k_proj): Linear(in_features=3072, out_features=1024, bias=False)
          (v_proj): Linear(in_features=3072, out_features=1024, bias=False)
          (o_proj): Linear(in_features=3072, out_features=3072, bias=False)
        )
        (mlp): LlamaMLP(
          (gate_proj): Linear(in_features=3072, out_features=8192, bias=False)
          (up_proj): Linear(in_features=3072, out_features=8192, bias=False)
          (down_proj): Linear(in_features=8192, out_features=3072, bias=False)
          (act_fn): SiLUActivation()
        )
        (input_layernorm): LlamaRMSNorm((3072,), eps=1e-05)
        (post_attention_layernorm): LlamaRMSNorm((3072,), eps=1e-05)
      )
    )
    (norm): LlamaRMSNorm((3072,), eps=1e-05)
    (rotary_emb): LlamaRotaryEmbedding()
  )
  (lm_head): Linear(in_features=3072, out_features=128256, bias=False)
)
2026-07-20 07:57:29.426 | INFO     | llmc.models.base_model:build_model:242 - self.model : LlamaForCausalLM(
  (model): LlamaModel(
    (embed_tokens): Embedding(128256, 3072)
    (layers): ModuleList(
      (0-27): 28 x LlamaDecoderLayer(
        (self_attn): LlamaAttention(
          (q_proj): Linear(in_features=3072, out_features=3072, bias=False)
          (k_proj): Linear(in_features=3072, out_features=1024, bias=False)
          (v_proj): Linear(in_features=3072, out_features=1024, bias=False)
          (o_proj): Linear(in_features=3072, out_features=3072, bias=False)
        )
        (mlp): LlamaMLP(
          (gate_proj): Linear(in_features=3072, out_features=8192, bias=False)
          (up_proj): Linear(in_features=3072, out_features=8192, bias=False)
          (down_proj): Linear(in_features=8192, out_features=3072, bias=False)
          (act_fn): SiLUActivation()
        )
        (input_layernorm): LlamaRMSNorm((3072,), eps=1e-05)
        (post_attention_layernorm): LlamaRMSNorm((3072,), eps=1e-05)
      )
    )
    (norm): LlamaRMSNorm((3072,), eps=1e-05)
    (rotary_emb): LlamaRotaryEmbedding()
  )
  (lm_head): Linear(in_features=3072, out_features=128256, bias=False)
)
2026-07-20 07:57:29.427 | INFO     | llmc.models.base_model:add_layernorms_class:277 - _TRANSFORMERS_LN_TYPES_ : [<class 'torch.nn.modules.normalization.LayerNorm'>, <class 'transformers.models.llama.modeling_llama.LlamaRMSNorm'>]
2026-07-20 07:57:29.427 | INFO     | llmc.models.base_model:add_layernorms_class:277 - _TRANSFORMERS_LN_TYPES_ : [<class 'torch.nn.modules.normalization.LayerNorm'>, <class 'transformers.models.llama.modeling_llama.LlamaRMSNorm'>]
…
  "max_position_embeddings": 131072,
  "mlp_bias": false,
  "model_type": "llama",
  "num_attention_heads": 24,
  "num_hidden_layers": 28,
  "num_key_value_heads": 8,
  "pad_token_id": null,
  "pretraining_tp": 1,
  "rms_norm_eps": 1e-05,
  "rope_parameters": {
    "factor": 32.0,
    "high_freq_factor": 4.0,
    "low_freq_factor": 1.0,
    "original_max_position_embeddings": 8192,
    "rope_theta": 500000.0,
    "rope_type": "llama3"
  },
  "tie_word_embeddings": true,
  "transformers_version": "5.14.1",
  "use_cache": false,
  "vocab_size": 128256
}
 
Model: 
LlamaForCausalLM(
  (model): LlamaModel(
    (embed_tokens): Embedding(128256, 3072)
    (layers): ModuleList(
      (0-27): 28 x LlamaDecoderLayer(
        (self_attn): LlamaAttention(
          (q_proj): Linear(in_features=3072, out_features=3072, bias=False)
          (k_proj): Linear(in_features=3072, out_features=1024, bias=False)
          (v_proj): Linear(in_features=3072, out_features=1024, bias=False)
          (o_proj): Linear(in_features=3072, out_features=3072, bias=False)
        )
        (mlp): LlamaMLP(
          (gate_proj): Linear(in_features=3072, out_features=8192, bias=False)
          (up_proj): Linear(in_features=3072, out_features=8192, bias=False)
          (down_proj): Linear(in_features=8192, out_features=3072, bias=False)
          (act_fn): SiLUActivation()
        )
        (input_layernorm): LlamaRMSNorm((3072,), eps=1e-05)
        (post_attention_layernorm): LlamaRMSNorm((3072,), eps=1e-05)
      )
    )
    (norm): LlamaRMSNorm((3072,), eps=1e-05)
    (rotary_emb): LlamaRotaryEmbedding()
  )
  (lm_head): Linear(in_features=3072, out_features=128256, bias=False)
)
2026-07-20 07:57:29.428 | INFO     | __main__:main:32 - model: 
Config: 
LlamaConfig {
  "architectures": [
    "LlamaForCausalLM"
  ],
  "attention_bias": false,
  "attention_dropout": 0.0,
  "bos_token_id": 128000,
  "dtype": "bfloat16",
  "eos_token_id": 128001,
  "head_dim": 128,
  "hidden_act": "silu",
  "hidden_size": 3072,
  "initializer_range": 0.02,
…
  m.register_buffer('buf_qmax', torch.tensor(max_int).to(self.dev))
/mnt/d/LightCompress/llmc/compression/quantization/base_blockwise_quantization.py:372: UserWarning: To copy construct from a tensor, it is recommended to use sourceTensor.detach().clone() or sourceTensor.detach().clone().requires_grad_(True), rather than torch.tensor(sourceTensor).
  m.register_buffer('buf_qmin', torch.tensor(min_int).to(self.dev))
2026-07-20 07:57:57.682 | INFO     | llmc.compression.blockwise_optimization:run_block_loop:36 - 
block index: 0/28 
block: LlamaDecoderLayer(
  (self_attn): LlamaAttention(
    (q_proj): Linear(in_features=3072, out_features=3072, bias=False)
    (k_proj): Linear(in_features=3072, out_features=1024, bias=False)
    (v_proj): Linear(in_features=3072, out_features=1024, bias=False)
    (o_proj): Linear(in_features=3072, out_features=3072, bias=False)
  )
  (mlp): LlamaMLP(
    (gate_proj): Linear(in_features=3072, out_features=8192, bias=False)
    (up_proj): Linear(in_features=3072, out_features=8192, bias=False)
    (down_proj): Linear(in_features=8192, out_features=3072, bias=False)
    (act_fn): SiLUActivation()
  )
  (input_layernorm): LlamaRMSNorm((3072,), eps=1e-05)
  (post_attention_layernorm): LlamaRMSNorm((3072,), eps=1e-05)
)
2026-07-20 07:57:57.682 | INFO     | llmc.compression.blockwise_optimization:run_block_loop:36 - 
block index: 0/28 
block: LlamaDecoderLayer(
  (self_attn): LlamaAttention(
    (q_proj): Linear(in_features=3072, out_features=3072, bias=False)
    (k_proj): Linear(in_features=3072, out_features=1024, bias=False)
    (v_proj): Linear(in_features=3072, out_features=1024, bias=False)
    (o_proj): Linear(in_features=3072, out_features=3072, bias=False)
  )
  (mlp): LlamaMLP(
    (gate_proj): Linear(in_features=3072, out_features=8192, bias=False)
    (up_proj): Linear(in_features=3072, out_features=8192, bias=False)
    (down_proj): Linear(in_features=8192, out_features=3072, bias=False)
    (act_fn): SiLUActivation()
  )
  (input_layernorm): LlamaRMSNorm((3072,), eps=1e-05)
  (post_attention_layernorm): LlamaRMSNorm((3072,), eps=1e-05)
)
2026-07-20 07:57:57.764 | INFO     | llmc.compression.quantization.base_blockwise_quantization:block_opt:416 - input_feat_modules: {'self_attn.q_proj': Linear(in_features=3072, out_features=3072, b
…
2026-07-20 07:58:00.620 | INFO     | llmc.compression.quantization.base_blockwise_quantization:block_transform:484 - Start transform the 0-th block
2026-07-20 07:58:00.621 | INFO     | llmc.compression.quantization.base_blockwise_quantization:block_transform:493 - subset: {'layers': {'self_attn.q_proj': Linear(in_features=3072, out_features=3072, bias=False), 'self_attn.k_proj': Linear(in_features=3072, out_features=1024, bias=False), 'self_attn.v_proj': Linear(in_features=3072, out_features=1024, bias=False)}, 'prev_op': [LlamaRMSNorm((3072,), eps=1e-05)], 'input': ['self_attn.q_proj'], 'inspect': LlamaAttention(
  (q_proj): Linear(in_features=3072, out_features=3072, bias=False)
  (k_proj): Linear(in_features=3072, out_features=1024, bias=False)
  (v_proj): Linear(in_features=3072, out_features=1024, bias=False)
  (o_proj): Linear(in_features=3072, out_features=3072, bias=False)
), 'has_kwargs': True}
2026-07-20 07:58:00.621 | INFO     | llmc.compression.quantization.base_blockwise_quantization:block_transform:493 - subset: {'layers': {'self_attn.q_proj': Linear(in_features=3072, out_features=3072, bias=False), 'self_attn.k_proj': Linear(in_features=3072, out_features=1024, bias=False), 'self_attn.v_proj': Linear(in_features=3072, out_features=1024, bias=False)}, 'prev_op': [LlamaRMSNorm((3072,), eps=1e-05)], 'input': ['self_attn.q_proj'], 'inspect': LlamaAttention(
  (q_proj): Linear(in_features=3072, out_features=3072, bias=False)
  (k_proj): Linear(in_features=3072, out_features=1024, bias=False)
  (v_proj): Linear(in_features=3072, out_features=1024, bias=False)
  (o_proj): Linear(in_features=3072, out_features=3072, bias=False)
), 'has_kwargs': True}
2026-07-20 07:58:02.222 | INFO     | llmc.compression.quantization.gptq:update_layer_with_transformed_weights:184 - error 1732.547119140625
2026-07-20 07:58:02.222 | INFO     | llmc.compression.quantization.gptq:update_layer_with_transformed_weights:184 - error 1732.547119140625
2026-07-20 07:58:02.694 | INFO     | llmc.compression.quantization.gptq:update_layer_with_transformed_weights:184 - error 928.4508666992188
…
2026-07-20 07:58:04.215 | INFO     | llmc.models.base_model:replace_module_subset:432 - replace >>> self_attn.o_proj in 0-th block
2026-07-20 07:58:04.215 | INFO     | llmc.models.base_model:replace_module_subset:432 - replace >>> self_attn.o_proj in 0-th block
2026-07-20 07:58:04.964 | INFO     | llmc.compression.quantization.base_blockwise_quantization:block_transform:493 - subset: {'layers': {'mlp.gate_proj': Linear(in_features=3072, out_features=8192, bias=False), 'mlp.up_proj': Linear(in_features=3072, out_features=8192, bias=False)}, 'prev_op': [LlamaRMSNorm((3072,), eps=1e-05)], 'input': ['mlp.gate_proj'], 'inspect': LlamaMLP(
  (gate_proj): Linear(in_features=3072, out_features=8192, bias=False)
  (up_proj): Linear(in_features=3072, out_features=8192, bias=False)
  (down_proj): Linear(in_features=8192, out_features=3072, bias=False)
  (act_fn): SiLUActivation()
), 'has_kwargs': False, 'is_mlp': True}
2026-07-20 07:58:04.964 | INFO     | llmc.compression.quantization.base_blockwise_quantization:block_transform:493 - subset: {'layers': {'mlp.gate_proj': Linear(in_features=3072, out_features=8192, bias=False), 'mlp.up_proj': Linear(in_features=3072, out_features=8192, bias=False)}, 'prev_op': [LlamaRMSNorm((3072,), eps=1e-05)], 'input': ['mlp.gate_proj'], 'inspect': LlamaMLP(
  (gate_proj): Linear(in_features=3072, out_features=8192, bias=False)
  (up_proj): Linear(in_features=3072, out_features=8192, bias=False)
  (down_proj): Linear(in_features=8192, out_features=3072, bias=False)
  (act_fn): SiLUActivation()
), 'has_kwargs': False, 'is_mlp': True}
2026-07-20 07:58:05.407 | INFO     | llmc.compression.quantization.gptq:update_layer_with_transformed_weights:184 - error 1363.985595703125
2026-07-20 07:58:05.407 | INFO     | llmc.compression.quantization.gptq:update_layer_with_transformed_weights:184 - error 1363.985595703125
2026-07-20 07:58:05.864 | INFO     | llmc.compression.quantization.gptq:update_layer_with_transformed_weights:184 - error 1217.212646484375
…
