…
  "transformers_version": "5.14.1",
  "use_cache": false,
  "vocab_size": 32768
}


Fetching 3 files:   0%|          | 0/3 [00:00<?, ?it/s]
Fetching 3 files:  33%|███▎      | 1/3 [01:51<03:42, 111.35s/it]
Fetching 3 files: 100%|██████████| 3/3 [01:51<00:00, 37.12s/it] 

Loading weights:   0%|          | 0/291 [00:00<?, ?it/s]
Loading weights:  56%|█████▋    | 164/291 [00:00<00:00, 1619.71it/s]
Loading weights: 100%|██████████| 291/291 [00:00<00:00, 1823.93it/s]
2026-07-20 12:34:25.553 | INFO     | llmc.models.base_model:build_model:242 - self.model : MistralForCausalLM(
  (model): MistralModel(
    (embed_tokens): Embedding(32768, 4096)
    (layers): ModuleList(
      (0-31): 32 x MistralDecoderLayer(
        (self_attn): MistralAttention(
          (q_proj): Linear(in_features=4096, out_features=4096, bias=False)
          (k_proj): Linear(in_features=4096, out_features=1024, bias=False)
          (v_proj): Linear(in_features=4096, out_features=1024, bias=False)
          (o_proj): Linear(in_features=4096, out_features=4096, bias=False)
        )
        (mlp): MistralMLP(
          (gate_proj): Linear(in_features=4096, out_features=14336, bias=False)
          (up_proj): Linear(in_features=4096, out_features=14336, bias=False)
          (down_proj): Linear(in_features=14336, out_features=4096, bias=False)
          (act_fn): SiLUActivation()
        )
        (input_layernorm): MistralRMSNorm((4096,), eps=1e-05)
        (post_attention_layernorm): MistralRMSNorm((4096,), eps=1e-05)
      )
    )
    (norm): MistralRMSNorm((4096,), eps=1e-05)
    (rotary_emb): MistralRotaryEmbedding()
  )
  (lm_head): Linear(in_features=4096, out_features=32768, bias=False)
)
2026-07-20 12:34:25.553 | INFO     | llmc.models.base_model:build_model:242 - self.model : MistralForCausalLM(
  (model): MistralModel(
    (embed_tokens): Embedding(32768, 4096)
    (layers): ModuleList(
      (0-31): 32 x MistralDecoderLayer(
        (self_attn): MistralAttention(
          (q_proj): Linear(in_features=4096, out_features=4096, bias=False)
          (k_proj): Linear(in_features=4096, out_features=1024, bias=False)
          (v_proj): Linear(in_features=4096, out_features=1024, bias=False)
          (o_proj): Linear(in_features=4096, out_features=4096, bias=False)
        )
        (mlp): MistralMLP(
          (gate_proj): Linear(in_features=4096, out_features=14336, bias=False)
          (up_proj): Linear(in_features=4096, out_features=14336, bias=False)
          (down_proj): Linear(in_features=14336, out_features=4096, bias=False)
          (act_fn): SiLUActivation()
        )
        (input_layernorm): MistralRMSNorm((4096,), eps=1e-05)
        (post_attention_layernorm): MistralRMSNorm((4096,), eps=1e-05)
      )
    )
    (norm): MistralRMSNorm((4096,), eps=1e-05)
    (rotary_emb): MistralRotaryEmbedding()
  )
  (lm_head): Linear(in_features=4096, out_features=32768, bias=False)
)
2026-07-20 12:34:25.554 | INFO     | llmc.models.base_model:add_layernorms_class:277 - _TRANSFORMERS_LN_TYPES_ : [<class 'torch.nn.modules.normalization.LayerNorm'>, <class 'transformers.models.mistral.modeling_mistral.MistralRMSNorm'>]
2026-07-20 12:34:25.554 | INFO     | llmc.models.base_model:add_layernorms_class:277 - _TRANSFORMERS_LN_TYPES_ : [<class 'torch.nn.modules.normalization.LayerNorm'>, <class 'transformers.models.mistral.modeling_mistral.MistralRMSNorm'>]
…
  "head_dim": 128,
  "hidden_act": "silu",
  "hidden_size": 4096,
  "initializer_range": 0.02,
  "intermediate_size": 14336,
  "max_position_embeddings": 32768,
  "model_type": "mistral",
  "num_attention_heads": 32,
  "num_hidden_layers": 32,
  "num_key_value_heads": 8,
  "pad_token_id": null,
  "rms_norm_eps": 1e-05,
  "rope_parameters": {
    "rope_theta": 1000000.0,
    "rope_type": "default"
  },
  "sliding_window": null,
  "tie_word_embeddings": false,
  "transformers_version": "5.14.1",
  "use_cache": false,
  "vocab_size": 32768
}
 
Model: 
MistralForCausalLM(
  (model): MistralModel(
    (embed_tokens): Embedding(32768, 4096)
    (layers): ModuleList(
      (0-31): 32 x MistralDecoderLayer(
        (self_attn): MistralAttention(
          (q_proj): Linear(in_features=4096, out_features=4096, bias=False)
          (k_proj): Linear(in_features=4096, out_features=1024, bias=False)
          (v_proj): Linear(in_features=4096, out_features=1024, bias=False)
          (o_proj): Linear(in_features=4096, out_features=4096, bias=False)
        )
        (mlp): MistralMLP(
          (gate_proj): Linear(in_features=4096, out_features=14336, bias=False)
          (up_proj): Linear(in_features=4096, out_features=14336, bias=False)
          (down_proj): Linear(in_features=14336, out_features=4096, bias=False)
          (act_fn): SiLUActivation()
        )
        (input_layernorm): MistralRMSNorm((4096,), eps=1e-05)
        (post_attention_layernorm): MistralRMSNorm((4096,), eps=1e-05)
      )
    )
    (norm): MistralRMSNorm((4096,), eps=1e-05)
    (rotary_emb): MistralRotaryEmbedding()
  )
  (lm_head): Linear(in_features=4096, out_features=32768, bias=False)
)
2026-07-20 12:34:25.555 | INFO     | __main__:main:32 - model: 
Config: 
MistralConfig {
  "architectures": [
    "MistralForCausalLM"
  ],
  "attention_dropout": 0.0,
  "bos_token_id": 1,
  "dtype": "bfloat16",
  "eos_token_id": 2,
  "head_dim": 128,
  "hidden_act": "silu",
  "hidden_size": 4096,
  "initializer_range": 0.02,
  "intermediate_size": 14336,
…
  m.register_buffer('buf_qmax', torch.tensor(max_int).to(self.dev))
/mnt/d/LightCompress/llmc/compression/quantization/base_blockwise_quantization.py:372: UserWarning: To copy construct from a tensor, it is recommended to use sourceTensor.detach().clone() or sourceTensor.detach().clone().requires_grad_(True), rather than torch.tensor(sourceTensor).
  m.register_buffer('buf_qmin', torch.tensor(min_int).to(self.dev))
2026-07-20 12:34:56.197 | INFO     | llmc.compression.blockwise_optimization:run_block_loop:36 - 
block index: 0/32 
block: MistralDecoderLayer(
  (self_attn): MistralAttention(
    (q_proj): Linear(in_features=4096, out_features=4096, bias=False)
    (k_proj): Linear(in_features=4096, out_features=1024, bias=False)
    (v_proj): Linear(in_features=4096, out_features=1024, bias=False)
    (o_proj): Linear(in_features=4096, out_features=4096, bias=False)
  )
  (mlp): MistralMLP(
    (gate_proj): Linear(in_features=4096, out_features=14336, bias=False)
    (up_proj): Linear(in_features=4096, out_features=14336, bias=False)
    (down_proj): Linear(in_features=14336, out_features=4096, bias=False)
    (act_fn): SiLUActivation()
  )
  (input_layernorm): MistralRMSNorm((4096,), eps=1e-05)
  (post_attention_layernorm): MistralRMSNorm((4096,), eps=1e-05)
)
2026-07-20 12:34:56.197 | INFO     | llmc.compression.blockwise_optimization:run_block_loop:36 - 
block index: 0/32 
block: MistralDecoderLayer(
  (self_attn): MistralAttention(
    (q_proj): Linear(in_features=4096, out_features=4096, bias=False)
    (k_proj): Linear(in_features=4096, out_features=1024, bias=False)
    (v_proj): Linear(in_features=4096, out_features=1024, bias=False)
    (o_proj): Linear(in_features=4096, out_features=4096, bias=False)
  )
  (mlp): MistralMLP(
    (gate_proj): Linear(in_features=4096, out_features=14336, bias=False)
    (up_proj): Linear(in_features=4096, out_features=14336, bias=False)
    (down_proj): Linear(in_features=14336, out_features=4096, bias=False)
    (act_fn): SiLUActivation()
  )
  (input_layernorm): MistralRMSNorm((4096,), eps=1e-05)
  (post_attention_layernorm): MistralRMSNorm((4096,), eps=1e-05)
)
2026-07-20 12:34:56.264 | INFO     | llmc.compression.quantization.base_blockwise_quantization:block_opt:416 - input_feat_modules: {'self_attn.q_proj': Linear(in_features=4096, out_features=40
…
2026-07-20 12:35:00.294 | INFO     | llmc.compression.quantization.base_blockwise_quantization:block_transform:484 - Start transform the 0-th block
2026-07-20 12:35:00.294 | INFO     | llmc.compression.quantization.base_blockwise_quantization:block_transform:493 - subset: {'layers': {'self_attn.q_proj': Linear(in_features=4096, out_features=4096, bias=False), 'self_attn.k_proj': Linear(in_features=4096, out_features=1024, bias=False), 'self_attn.v_proj': Linear(in_features=4096, out_features=1024, bias=False)}, 'prev_op': [MistralRMSNorm((4096,), eps=1e-05)], 'input': ['self_attn.q_proj'], 'inspect': MistralAttention(
  (q_proj): Linear(in_features=4096, out_features=4096, bias=False)
  (k_proj): Linear(in_features=4096, out_features=1024, bias=False)
  (v_proj): Linear(in_features=4096, out_features=1024, bias=False)
  (o_proj): Linear(in_features=4096, out_features=4096, bias=False)
), 'has_kwargs': True}
2026-07-20 12:35:00.294 | INFO     | llmc.compression.quantization.base_blockwise_quantization:block_transform:493 - subset: {'layers': {'self_attn.q_proj': Linear(in_features=4096, out_features=4096, bias=False), 'self_attn.k_proj': Linear(in_features=4096, out_features=1024, bias=False), 'self_attn.v_proj': Linear(in_features=4096, out_features=1024, bias=False)}, 'prev_op': [MistralRMSNorm((4096,), eps=1e-05)], 'input': ['self_attn.q_proj'], 'inspect': MistralAttention(
  (q_proj): Linear(in_features=4096, out_features=4096, bias=False)
  (k_proj): Linear(in_features=4096, out_features=1024, bias=False)
  (v_proj): Linear(in_features=4096, out_features=1024, bias=False)
  (o_proj): Linear(in_features=4096, out_features=4096, bias=False)
), 'has_kwargs': True}
2026-07-20 12:35:01.278 | INFO     | llmc.compression.quantization.gptq:update_layer_with_transformed_weights:184 - error 213.2251434326172
2026-07-20 12:35:01.278 | INFO     | llmc.compression.quantization.gptq:update_layer_with_transformed_weights:184 - error 213.2251434326172
2026-07-20 12:35:01.872 | INFO     | llmc.compression.quantization.gptq:update_layer_with_transformed_weights:184 - error 54.07888412475586
…
2026-07-20 12:35:04.105 | INFO     | llmc.models.base_model:replace_module_subset:432 - replace >>> self_attn.o_proj in 0-th block
2026-07-20 12:35:04.105 | INFO     | llmc.models.base_model:replace_module_subset:432 - replace >>> self_attn.o_proj in 0-th block
2026-07-20 12:35:05.288 | INFO     | llmc.compression.quantization.base_blockwise_quantization:block_transform:493 - subset: {'layers': {'mlp.gate_proj': Linear(in_features=4096, out_features=14336, bias=False), 'mlp.up_proj': Linear(in_features=4096, out_features=14336, bias=False)}, 'prev_op': [MistralRMSNorm((4096,), eps=1e-05)], 'input': ['mlp.gate_proj'], 'inspect': MistralMLP(
  (gate_proj): Linear(in_features=4096, out_features=14336, bias=False)
  (up_proj): Linear(in_features=4096, out_features=14336, bias=False)
  (down_proj): Linear(in_features=14336, out_features=4096, bias=False)
  (act_fn): SiLUActivation()
), 'has_kwargs': False}
2026-07-20 12:35:05.288 | INFO     | llmc.compression.quantization.base_blockwise_quantization:block_transform:493 - subset: {'layers': {'mlp.gate_proj': Linear(in_features=4096, out_features=14336, bias=False), 'mlp.up_proj': Linear(in_features=4096, out_features=14336, bias=False)}, 'prev_op': [MistralRMSNorm((4096,), eps=1e-05)], 'input': ['mlp.gate_proj'], 'inspect': MistralMLP(
  (gate_proj): Linear(in_features=4096, out_features=14336, bias=False)
  (up_proj): Linear(in_features=4096, out_features=14336, bias=False)
  (down_proj): Linear(in_features=14336, out_features=4096, bias=False)
  (act_fn): SiLUActivation()
), 'has_kwargs': False}
2026-07-20 12:35:05.903 | INFO     | llmc.compression.quantization.gptq:update_layer_with_transformed_weights:184 - error 284.97320556640625
2026-07-20 12:35:05.903 | INFO     | llmc.compression.quantization.gptq:update_layer_with_transformed_weights:184 - error 284.97320556640625
2026-07-20 12:35:06.538 | INFO     | llmc.compression.quantization.gptq:update_layer_with_transformed_weights:184 - error 256.07745361328125
…
